examples/benchmarks/cpu/vww/vww_float32_9.onnx (onnx, 878755 bytes, 56 tensors)

model/dense/BiasAdd/ReadVariableOp/resource f4 [2]
0	0x3ddd666a	0.108105496
1	0xbddd667c	-0.10810563

model/activation_9/Relu;model/batch_normalization_9/FusedBatchNormV3;model/depthwise_conv2d_4/depthwise;model/depthwise_conv2d_4/BiasAdd;model/depthwise_conv2d_5/depthwise;model/depthwise_conv2d_4/BiasAdd/ReadVariableOp/resource f4 [64]
0	0xbe06bb46	-0.13157377
1	0xbf272aa4	-0.6529944
2	0x3f49a599	0.78768307
3	0xbf3399e4	-0.70156693
4	0xbe5ff16d	-0.2186944
5	0xbec53935	-0.38520208
6	0xbdbd2140	-0.092348576
7	0xbf265a8c	-0.64981914
8	0xbf03f017	-0.51538223
9	0x3f16be3c	0.58884025
10	0xbe4ca653	-0.19985323
11	0xbf28bfb3	-0.6591751
12	0xbf8dbe40	-1.1073685
13	0xbd816350	-0.063177705
14	0x3e926fec	0.28601015
15	0xbe91408e	-0.28369564
16	0xbe35458a	-0.17702308
17	0xbf302cb4	-0.6881821
18	0x3e8320a2	0.25610834
19	0x3f83de99	1.0302306
20	0xbee76602	-0.45195013
21	0xbf0fddfa	-0.56198084
22	0x3f761b18	0.9613509
23	0x3f875d24	1.0575299
24	0xbcc044fe	-0.023470398
25	0xbedbabaa	-0.42904407
26	0xbf1fbd2d	-0.62398034
27	0x3f613bd4	0.87981915
28	0x3fe3bb90	1.7791615
29	0x3df8c5ce	0.12147103
30	0xbf02688e	-0.5094079
31	0x3e281e73	0.16417865
32	0xbd0de8ba	-0.034645773
33	0x3f68e45d	0.90973455
34	0x3f2aa421	0.6665669
35	0xbf0eabdc	-0.55730987
36	0x3e7a7d12	0.24461773
37	0xbf0107e2	-0.50402653
38	0xbfc93a14	-1.5720849
39	0xbe2a3f4b	-0.16625707
40	0x3fafea13	1.3743309
41	0xbc92ecf0	-0.017935246
42	0xbe63a75c	-0.22231811
43	0xbf30f3ef	-0.69122213
44	0xbf2a972a	-0.6663691
45	0x3f7a1db8	0.977016
46	0xbed0c06c	-0.40771806
47	0xbeaa4454	-0.33255255
48	0x3b4fb0a0	0.003169097
49	0x3d796be4	0.06089391
50	0xbd59a980	-0.053140163
51	0xbd662edf	-0.056197044
52	0x3e4d8fbe	0.20074365
53	0x3f7e1851	0.99255854
54	0x3f4b8ae1	0.7950879
55	0xbde2c188	-0.110720694
56	0xbefe207a	-0.49634153
57	0xbe899af4	-0.26876032
58	0x3f405343	0.7512705
59	0xbed047e6	-0.40679854
60	0xbe2e8bd7	-0.17045532
61	0x3e313e06	0.17308816
62	0x3cbb1310	0.022836238
63	0x3f2f12b4	0.68387914

model/activation_8/Relu;model/batch_normalization_8/FusedBatchNormV3;model/conv2d_4/BiasAdd/ReadVariableOp/resource;model/conv2d_4/BiasAdd;model/depthwise_conv2d_5/depthwise;model/conv2d_4/Conv2D f4 [64]
0	0x3f62d6f2	0.8860923
1	0x3db33848	0.08750969
2	0x3f456ca6	0.7711891
3	0xbc8b4dee	-0.017004933
4	0xbf509f50	-0.8149309
5	0x3eb94f63	0.3619338
6	0x3f8295d6	1.0201976
7	0xbeb8ed2b	-0.36118445
8	0x3e5b13e5	0.21394308
9	0x3f171478	0.5901561
10	0x3e955eb6	0.2917382
11	0x3f9476fe	1.1598814
12	0x3f144846	0.5792278
13	0x3f58823b	0.84573716
14	0x3f4aeea9	0.79270416
15	0x3dae8e9d	0.08523295
16	0xbf42fa56	-0.7616323
17	0xc004b408	-2.0734882
18	0xbe852b21	-0.26009467
19	0xbfd1691e	-1.6360204
20	0x3eb3376c	0.3500322
21	0xbf1a219d	-0.6020754
22	0x3f8421a1	1.0322763
23	0x3fd3428f	1.6504687
24	0x3f97701d	1.1831089
25	0x3e4d5fd8	0.20056093
26	0x3e9f9bb0	0.31173468
27	0x3f256098	0.64600515
28	0x3fa712bb	1.3052591
29	0x3e9787d3	0.29595813
30	0xbe2bc4ba	-0.16774264
31	0x3fc2b608	1.5211802
32	0xc0057b2e	-2.0856433
33	0x3fc1e3ae	1.5147607
34	0xbff73cfd	-1.9315487
35	0x3f630888	0.8868489
36	0x3f1f1190	0.62136173
37	0x3ee1466e	0.43999046
38	0x3fc2f9d9	1.5232497
39	0x3f4b3f57	0.79393524
40	0x3f49f47e	0.7888869
41	0x3e64ab61	0.22331001
42	0x3f26c56a	0.6514498
43	0x3f337fe8	0.70117044
44	0xbf141f91	-0.57860667
45	0x3fa86961	1.3157159
46	0x3f546e78	0.8298106
47	0x400e5501	2.2239382
48	0xbeda7128	-0.42664456
49	0x3f87c10a	1.0605786
50	0x3f821247	1.0161828
51	0xbebbf60d	-0.3671116
52	0x3f9443c6	1.1583183
53	0x3f925865	1.1433226
54	0xbf132af5	-0.5748742
55	0x3ffc0f47	1.9692162
56	0x40139533	2.3059814
57	0x3f6c3ca9	0.9228006
58	0x3e8157ed	0.25262395
59	0x3fb02b20	1.3763161
60	0xbe0812fd	-0.13288493
61	0x3f58da50	0.8470812
62	0xbec50b8e	-0.38485378
63	0xbd0ecf25	-0.034865517

model/activation_7/Relu;model/batch_normalization_7/FusedBatchNormV3;model/depthwise_conv2d_3/depthwise;model/depthwise_conv2d_3/BiasAdd;model/depthwise_conv2d_3/BiasAdd/ReadVariableOp/resource f4 [32]
0	0x3d5d1450	0.05397445
1	0x3fb97695	1.4489313
2	0x3f0d4236	0.55179155
3	0x3e424206	0.18970498
4	0x3f7050e5	0.93873435
5	0x401649b1	2.3482478
6	0x3d99794b	0.07493838
7	0x3fbd9d16	1.4813564
8	0x4001e348	2.0294971
9	0x3dca2dda	0.09872027
10	0xbf84b178	-1.0366659
11	0xbdf9a3ae	-0.121894225
12	0xbe967f63	-0.29394063
13	0x40024383	2.0353706
14	0x3f909180	1.1294403
15	0x3fd42472	1.6573622
16	0x3fed8a66	1.8557861
17	0x409cf273	4.904596
18	0x4010e3be	2.2639003
19	0x3f934a0a	1.150697
20	0xbf214d84	-0.63008904
21	0x4003109f	2.0478895
22	0xbe54fae0	-0.20798826
23	0xbee54ae1	-0.4478369
24	0xbec0a593	-0.37626323
25	0xbe682f3c	-0.22674268
26	0x40032c34	2.049573
27	0xbc81bdde	-0.015837606
28	0x3fe3c117	1.7793301
29	0x3ddaa4c8	0.10675961
30	0x3dee2554	0.116282135
31	0x3fe5c95d	1.7952076

model/activation_6/Relu;model/batch_normalization_6/FusedBatchNormV3;model/conv2d_3/BiasAdd/ReadVariableOp/resource;model/conv2d_3/BiasAdd;model/depthwise_conv2d_3/depthwise;model/conv2d_3/Conv2D f4 [32]
0	0xbf275e2e	-0.6537808
1	0x3f8a1ef9	1.0790702
2	0x3f0a6ea4	0.54075074
3	0x3ebc7ffa	0.36816388
4	0x3ec9ee06	0.3943941
5	0x3e380b4e	0.17973062
6	0xbdbd02e1	-0.09229065
7	0xbf46235b	-0.773977
8	0x3f010ba5	0.50408393
9	0x3ec1b9b7	0.37837002
10	0x3f354178	0.7080302
11	0x3f07af26	0.5300163
12	0x3eed05f3	0.462936
13	0xbeb38a66	-0.35066527
14	0xbda20bd0	-0.07912409
15	0x3eb9e6fc	0.3630904
16	0x3f23e7bd	0.6402548
17	0x3f5f4ce2	0.8722669
18	0x3f8f8245	1.121163
19	0xbe665d0f	-0.22496437
20	0x3e997e96	0.2997939
21	0x3f4937a7	0.78600544
22	0xbf1188d6	-0.5684942
23	0x3ea38de5	0.31944194
24	0x3e4f669a	0.20253983
25	0x3f70e438	0.94098234
26	0x3f0c9988	0.5492177
27	0xbee4e797	-0.4470794
28	0xbdb23ca5	-0.08702973
29	0xbf8187e7	-1.0119599
30	0x3fd1f233	1.6402038
31	0x3f0e2312	0.55522263

model/activation_5/Relu;model/batch_normalization_5/FusedBatchNormV3;model/depthwise_conv2d_2/depthwise;model/depthwise_conv2d_2/BiasAdd;model/depthwise_conv2d_3/depthwise;model/depthwise_conv2d_2/BiasAdd/ReadVariableOp/resource f4 [32]
0	0xbf955d9d	-1.1669194
1	0xbf852e38	-1.040473
2	0x3f43bb26	0.7645744
3	0xbf3d6f3a	-0.73997843
4	0x3f9b81e3	1.2149013
5	0x3f7662eb	0.96244687
6	0xbe8f9574	-0.2804371
7	0x3f88fde2	1.0702479
8	0xbd0cc598	-0.034368128
9	0xbe9d86ff	-0.30767056
10	0xbdc5bf0e	-0.096555814
11	0x3edb2e25	0.42808643
12	0x3d5a9d30	0.053372562
13	0x3f3aaec3	0.72922915
14	0xbf0d570e	-0.5521096
15	0xbf1c3f98	-0.61034536
16	0xbd9089f8	-0.070575655
17	0xbc2e8fa0	-0.01065436
18	0xbdeae698	-0.114697635
19	0xbea0cc3f	-0.31405827
20	0x3f38e005	0.72216827
21	0xbf69685b	-0.9117486
22	0x3fc1db11	1.5144979
23	0x3cc56fc0	0.024101138
24	0x3f968a58	1.1760969
25	0x3d60d858	0.05489382
26	0xbf0d200d	-0.5512703
27	0xbe029df7	-0.12755571
28	0xbdf6bb2a	-0.120474175
29	0xbcaccde0	-0.021094263
30	0x4009a35a	2.1505952
31	0xbf53e5bc	-0.8277242

model/activation_4/Relu;model/batch_normalization_4/FusedBatchNormV3;model/conv2d_2/BiasAdd/ReadVariableOp/resource;model/conv2d_2/BiasAdd;model/depthwise_conv2d_3/depthwise;model/conv2d_2/Conv2D f4 [32]
0	0xbe878081	-0.26465228
1	0x3f46d920	0.77675056
2	0xbf5e09af	-0.86733526
3	0xbf5a895e	-0.85365856
4	0x3f0d02d8	0.55082464
5	0x3e8cd84b	0.27508768
6	0xbdb1a5de	-0.08674215
7	0xbfd4557a	-1.6588585
8	0x3fc7fc43	1.5623859
9	0x3e7d0642	0.24709418
10	0xbec91c48	-0.3927939
11	0xbcae0af8	-0.021245465
12	0xc035e51e	-2.8421092
13	0xbd21a8bc	-0.03946756
14	0xbf001174	-0.5002663
15	0x3eb90a49	0.3614066
16	0xbf5dd677	-0.8665537
17	0xbd8f4245	-0.06995062
18	0xbfa0d853	-1.2566017
19	0xbe1fbd52	-0.15599564
20	0x3ebaad52	0.36460358
21	0x3f6e6e12	0.93136704
22	0x3cd11c76	0.025526267
23	0x3f3da3e0	0.7407818
24	0xbfd5ac40	-1.6693192
25	0x3eb20f2c	0.347772
26	0xc02e9f52	-2.7284741
27	0x3f1fb8bd	0.62391263
28	0xbebf59b6	-0.37373132
29	0xbf7f7f91	-0.99804026
30	0x3dd6517d	0.104647614
31	0xbf773ce9	-0.96577317

model/activation_3/Relu;model/batch_normalization_3/FusedBatchNormV3;model/depthwise_conv2d_1/depthwise;model/depthwise_conv2d_1/BiasAdd;model/depthwise_conv2d_1/BiasAdd/ReadVariableOp/resource f4 [16]
0	0xbe22e508	-0.15907681
1	0x3fa5a4ef	1.2940959
2	0x3ffaed8b	1.9603742
3	0x3d362e98	0.04447803
4	0x404d6c50	3.2097359
5	0x3e87ceff	0.26525113
6	0x3d5fb600	0.054616928
7	0x3fed5e6d	1.8544441
8	0x3f8e4bce	1.1116884
9	0xbfb3396a	-1.4001896
10	0xbe3192cc	-0.17341155
11	0x405f9689	3.493563
12	0xbf32a202	-0.69778454
13	0xbf57e791	-0.8433772
14	0x3f906c08	1.1282969
15	0x3fc38f72	1.5278151

model/activation_26/Relu;model/batch_normalization_26/FusedBatchNormV3;model/conv2d_13/BiasAdd/ReadVariableOp/resource;model/conv2d_13/BiasAdd;model/conv2d_13/Conv2D f4 [256]
0	0xbe8ec73c	-0.2788638
1	0xbed9bb28	-0.425256
2	0xbed5ac1f	-0.4173288
3	0xbec16337	-0.37771007
4	0xbea2a42a	-0.31765872
5	0xbeca110f	-0.3946614
6	0xbe915799	-0.28387144
7	0xbec2e6c1	-0.38066676
8	0xbeadc117	-0.33936378
9	0xbebd6430	-0.369905
10	0xbe89702e	-0.268434
11	0xbec70748	-0.38872743
12	0xbe844c9e	-0.25839704
13	0xbf46615a	-0.77492297
14	0xbeba6115	-0.36402193
15	0xbeb12066	-0.3459503
16	0xbea80e06	-0.328232
17	0xbecbee16	-0.39830083
18	0xbe8fbdef	-0.28074595
19	0xbea01cf2	-0.31272084
20	0xbe91d4c8	-0.28482652
21	0xbf1d9d57	-0.61568207
22	0xbed295f0	-0.41130018
23	0xbed6497a	-0.41852933
24	0xbea8260a	-0.32841522
25	0xbe8e2e9e	-0.2776994
26	0xbe97d460	-0.29654217
27	0xbe9d1f61	-0.30688003
28	0xbe6bfb80	-0.23045158
29	0xbeacba9e	-0.33736128
30	0xbe968fd9	-0.29406622
31	0xbec8e6dd	-0.39238635
32	0xbe6f708c	-0.23382777
33	0xbeb11e6c	-0.34593523
34	0xbf0f8501	-0.5606232
35	0xbed93a43	-0.42427263
36	0xbe998782	-0.29986197
37	0xbf4e9503	-0.80696124
38	0xbea2b6ac	-0.31779993
39	0xbf37198e	-0.7152337
40	0xbe8ed882	-0.27899557
41	0xbece83dd	-0.4033498
42	0xbe9e703b	-0.30945
43	0xbf590e32	-0.84787285
44	0xbe6a6477	-0.22889887
45	0xbec6889f	-0.3877611
46	0xbe88516d	-0.26624623
47	0xbe873f0e	-0.26415294
48	0xbe972cad	-0.29526272
49	0xbefb00b1	-0.49023965
50	0xbf33c3d9	-0.70220715
51	0xbe883f47	-0.26610777
52	0xbea4c5b9	-0.321821
53	0xbebde04d	-0.3708519
54	0xbf4f2fe0	-0.80932426
55	0xbe8b7b5e	-0.2724256
56	0x3ecb5ee5	0.39720836
57	0xbea8d302	-0.32973486
58	0xbec908c6	-0.39264506
59	0xbeac6e0c	-0.3367771
60	0xbe922fe8	-0.28552175
61	0xbec9dd9b	-0.39426884
62	0xbe89b1a4	-0.26893342
63	0xbea5d44f	-0.3238854
64	0xbecb1991	-0.39667943
65	0xbeb4f658	-0.35344195
66	0xbe9afdfe	-0.30271906
67	0xbea763d1	-0.3269334
68	0xbeac77e3	-0.33685216
69	0xbea2ab9a	-0.31771547
70	0xbeb49df4	-0.3527676
71	0xbec0ab5d	-0.3763074
72	0xbe9ee4b0	-0.3103385
73	0x3e9faeaf	0.3118796
74	0xbea59a3b	-0.3234423
75	0xbf133990	-0.5750971
76	0xbe97102e	-0.29504532
77	0xbeda8abd	-0.42683974
78	0xbec5462f	-0.38530108
79	0xbeaa908b	-0.33313403
80	0xbeb82bcf	-0.35970923
81	0xbf38d01e	-0.7219256
82	0xbe88b648	-0.2670157
83	0xbeab7947	-0.33490965
84	0xbe9184a2	-0.28421503
85	0xbeb5538c	-0.35415304
86	0xbebb4738	-0.36577773
87	0x3f55da2e	0.8353604
88	0xbf65d237	-0.8977389
89	0xbf068839	-0.5255161
90	0xbeea838a	-0.4580348
91	0xbeca3bb5	-0.39498678
92	0xbe9cab1f	-0.30599305
93	0xbeb5668d	-0.35429803
94	0xbe8c4c02	-0.2740174
95	0x3eda6068	0.42651677
96	0xbeb8aff1	-0.36071733
97	0xbeb97d22	-0.3622828
98	0xbf0ccb0e	-0.54997337
99	0x3ea35e12	0.31907707
100	0xbea684c0	-0.32523155
101	0xbe843cf4	-0.25827754
102	0xbe9d3fe5	-0.3071281
103	0xbeae0e52	-0.339953
104	0xbe53ab0b	-0.20670716
105	0xbeef2692	-0.46709114
106	0xbec2d6fb	-0.38054642
107	0xbe71c619	-0.23610725
108	0xbe9824c7	-0.2971556
109	0xbf0bd2c0	-0.54618454
110	0xbe998072	-0.29980808
111	0xbebf10aa	-0.373174
112	0xbeb00f48	-0.3438666
113	0xbea7ce31	-0.327745
114	0xbea62cad	-0.3245596
115	0xbe93d85e	-0.28876013
116	0xbea74466	-0.3266937
117	0xbeb33720	-0.35002995
118	0xbeb37e2c	-0.350572
119	0xbe9dfbce	-0.30856174
120	0xbec03ca2	-0.3754626
121	0xbe9fec89	-0.3123515
122	0xbeb22963	-0.347972
123	0xbeb63558	-0.35587573
124	0xbec33690	-0.38127565
125	0xbe9abe7d	-0.30223456
126	0xbe9a56d7	-0.3014438
127	0xbe865e11	-0.26243642
128	0xbec20f1c	-0.37902153
129	0xbeb4aad0	-0.3528657
130	0xbea12864	-0.31476128
131	0xbec5a875	-0.38605085
132	0xbeb7b43d	-0.35879698
133	0xbed6fe4f	-0.41990897
134	0xbea463eb	-0.3210748
135	0xbeb78d25	-0.35849872
136	0xbf041bd1	-0.51604944
137	0xbe9a2310	-0.30104876
138	0xbf246bd4	-0.6422703
139	0xbe88d082	-0.2672158
140	0xbeaae414	-0.33377135
141	0xbec5ad26	-0.38608664
142	0xbeaae237	-0.33375713
143	0xbd1df8d3	-0.038567375
144	0xbe995984	-0.29951108
145	0xbe88e758	-0.26739
146	0xbe9e904c	-0.30969465
147	0xbf2472b6	-0.64237535
148	0xbec2565f	-0.3795652
149	0x3f31371c	0.69224715
150	0xbe98c64c	-0.29838789
151	0xbeea02a1	-0.4570513
152	0xbec098eb	-0.37616667
153	0xbec6d27f	-0.3883247
154	0xbea1a5ae	-0.31571716
155	0xbe823e06	-0.25437945
156	0xbece0cd1	-0.40244153
157	0xbecc3cb3	-0.3989006
158	0xbe93940d	-0.2882389
159	0xbeaf1bb0	-0.3420081
160	0xbe90dd5b	-0.2829388
161	0xbeac0e45	-0.33604637
162	0xbeae633a	-0.3406008
163	0xbeca70f7	-0.3953931
164	0xbeaacabd	-0.33357802
165	0xbeb598eb	-0.3546823
166	0xbee450b4	-0.44592822
167	0xbeab95a5	-0.33512607
168	0xbe9c243c	-0.30496395
169	0xbef6eac6	-0.48225993
170	0xbe9dcbf0	-0.30819654
171	0xbf13cfa5	-0.57738715
172	0xbe86825e	-0.26271337
173	0xbeba7d57	-0.36423752
174	0xbe96ff1d	-0.2949151
175	0xbe8ce322	-0.2751704
176	0xbe82ee6d	-0.2557253
177	0xbde20c73	-0.11037531
178	0xbec1aaf1	-0.3782573
179	0xbeae07e5	-0.33990398
180	0xbe9edfad	-0.31030026
181	0xbeb77c76	-0.35837144
182	0xbeb5b664	-0.35490716
183	0xbed072a5	-0.40712467
184	0xbe7f80d5	-0.2495149
185	0xbebade44	-0.364977
186	0xbea452a1	-0.3209429
187	0xbebc941d	-0.3683175
188	0xbee0e745	-0.43926445
189	0xbf361059	-0.71118695
190	0xbea87a40	-0.3290577
191	0xbe7fead5	-0.24991925
192	0xbe977643	-0.29582414
193	0xbe9920ea	-0.29907924
194	0xbe8f9868	-0.28045964
195	0xbec40a08	-0.38288903
196	0xbe8e76ee	-0.2782511
197	0xbea0d528	-0.31412625
198	0xbebd7a50	-0.3700738
199	0xbe9cdafc	-0.30635822
200	0x3d148852	0.036262818
201	0xbd72fab4	-0.05932112
202	0xbecebebd	-0.40379897
203	0xbeb8b85e	-0.3607816
204	0xbea1cd6a	-0.3160203
205	0xbe8f0ca7	-0.2793934
206	0xbe6f5cf7	-0.23375307
207	0xbe57d888	-0.21078694
208	0xbf014b3d	-0.5050543
209	0xbe8af49f	-0.27139756
210	0xbeb0e5e2	-0.34550387
211	0xbea98ee0	-0.33116817
212	0xbe90a2b2	-0.28249127
213	0xbee64cee	-0.44980568
214	0xbf1bd922	-0.60878193
215	0xbea527da	-0.32256967
216	0xbea7680e	-0.32696575
217	0xbe86c10f	-0.26319167
218	0xbe94ca69	-0.29060677
219	0xbe89d01f	-0.26916596
220	0xbe8dabd5	-0.2767016
221	0xbea12a80	-0.31477737
222	0xbf3a1385	-0.72686034
223	0xbe91b37a	-0.28457242
224	0xbe99c624	-0.30033982
225	0xbe9fffa5	-0.3124973
226	0xbe6c2e9b	-0.23064654
227	0xbe8fa9f1	-0.28059343
228	0xbec1edba	-0.37876683
229	0xbebbb88f	-0.36664245
230	0xbea9b4d2	-0.33145767
231	0xbed20518	-0.4101951
232	0xbf223659	-0.6336418
233	0xbed753e7	-0.420562
234	0xbee6a1c0	-0.4504528
235	0xbea2f3fd	-0.31826773
236	0xbeb6f0bc	-0.3573054
237	0xbea5cfd3	-0.3238512
238	0xbebd54d1	-0.36978772
239	0xbcc28fa0	-0.023750126
240	0xbea1bec5	-0.31590858
241	0xbe945b32	-0.28975827
242	0xbed17410	-0.4090886
243	0xbe840594	-0.25785506
244	0xbe8f556d	-0.27994862
245	0xbe90023b	-0.28126702
246	0xbe9f24f4	-0.3108288
247	0xbe9e3350	-0.30898523
248	0xbef3cfdc	-0.47619522
249	0xbd61f09d	-0.055161107
250	0xbe9ae0b4	-0.3024956
251	0xbeacfa0d	-0.33784524
252	0xbebdad08	-0.37046075
253	0x3f2588ba	0.64661753
254	0xbed7a715	-0.4211966
255	0xbeb98ee9	-0.36241844

model/activation_25/Relu;model/batch_normalization_25/FusedBatchNormV3;model/depthwise_conv2d_12/depthwise;model/depthwise_conv2d_12/BiasAdd;model/conv2d_13/Conv2D;model/depthwise_conv2d_12/BiasAdd/ReadVariableOp/resource f4 [256]
0	0x3d983920	0.07432771
1	0x3ebd5ced	0.3698496
2	0xbe76cb32	-0.2410095
3	0xbea64649	-0.32475498
4	0xbe9d58b5	-0.3073174
5	0xbe8713ac	-0.26382196
6	0x3e2bf7d0	0.16793752
7	0xbe66de2b	-0.22545688
8	0xbeaea264	-0.3410827
9	0xbe706879	-0.23477353
10	0xbea5c3c0	-0.32375908
11	0xbe8e16c0	-0.27751732
12	0xbe8c17fd	-0.27362052
13	0xbe86a3cc	-0.26296842
14	0x3d9478f0	0.072496295
15	0xbe904308	-0.2817614
16	0x3c95d4f2	0.018290017
17	0xbddaa05f	-0.106751196
18	0xbeb0d4fa	-0.34537488
19	0xbe275eb5	-0.16344722
20	0xbe73b2b9	-0.23798646
21	0xbeb73a41	-0.35786632
22	0x3bb60b90	0.0055555776
23	0xbe94d5c2	-0.29069334
24	0xbea5b8be	-0.3236751
25	0xbe80f7b4	-0.25188982
26	0xbe91bf44	-0.28466237
27	0xbea4c901	-0.32184604
28	0x3e273496	0.16328654
29	0xbe9c5f2f	-0.3054137
30	0xbe7e01d7	-0.2480539
31	0xbe8405c0	-0.25785637
32	0xbe428d09	-0.18999113
33	0xbeb67610	-0.3563695
34	0xbe8b104e	-0.27160877
35	0xbebd01fd	-0.3691558
36	0xbe8ba4c2	-0.27274138
37	0xbeaca281	-0.3371773
38	0xbe7b842c	-0.24562138
39	0xbb545aa0	-0.003240265
40	0xbe91168a	-0.28337508
41	0xbf7c9fbd	-0.9868124
42	0x3e8f4721	0.27983955
43	0xbe7fa6f2	-0.24966028
44	0x3f335997	0.7005858
45	0xbc5051a9	-0.012714782
46	0xbdce0ca4	-0.10061005
47	0xbeb0f12d	-0.34559003
48	0xbe614bb4	-0.22001535
49	0xbeaa2d33	-0.3323761
50	0xbe4c619c	-0.1995911
51	0xbe9b1a0e	-0.30293316
52	0xbea45ba3	-0.32101163
53	0xbea73636	-0.32658547
54	0xbe9ce6b8	-0.30644774
55	0xbd2ee272	-0.042696424
56	0xbe90af5e	-0.28258795
57	0xbe8d1c6f	-0.27560756
58	0xbe1e8a50	-0.1548245
59	0xbe8efece	-0.27928776
60	0xbe9574d6	-0.291907
61	0x3ed43aeb	0.414512
62	0x3f9e0275	1.23445
63	0xbe88096b	-0.26569685
64	0xbe997362	-0.29970843
65	0xbe3a2ffe	-0.1818237
66	0xbd861e80	-0.06548786
67	0x3ea6e779	0.32598475
68	0x3cbed083	0.023292786
69	0xbe9758c1	-0.295599
70	0xbec9d61e	-0.3942117
71	0x3e87e7b5	0.26543966
72	0x3d02e962	0.031960852
73	0xbed4ab9a	-0.41537172
74	0xbea93d4a	-0.33054572
75	0xbef080b4	-0.46973193
76	0xbebc2961	-0.3675032
77	0xbea3d851	-0.32000974
78	0xbe8b0508	-0.27152276
79	0x3ea82dfc	0.32847583
80	0xbdb5592f	-0.08854901
81	0xbe7f1d6c	-0.24913567
82	0x3e9fb605	0.31193557
83	0xbe868285	-0.26271453
84	0xbeace0f4	-0.33765376
85	0xbec0b360	-0.37636852
86	0xbe8837c6	-0.26605052
87	0xbea14f43	-0.31505784
88	0xbe8a1e85	-0.2697641
89	0xbe2158ce	-0.15756533
90	0x3c10d226	0.008839166
91	0xbe9169fb	-0.2840117
92	0xbe885392	-0.2662626
93	0xbdcd5c37	-0.10027354
94	0xbec077d2	-0.37591416
95	0x3ca10768	0.019656852
96	0xbea24dd6	-0.3170001
97	0xbe759e9a	-0.23986283
98	0x3eed3847	0.46332
99	0x3e5002ed	0.20313616
100	0x3c23a0f4	0.009987105
101	0xbeba6763	-0.36407003
102	0xbe339b07	-0.17539607
103	0x3ed02a61	0.40657333
104	0xbe980cb8	-0.29697204
105	0xbe83e7e0	-0.25762844
106	0xbda9e526	-0.0829566
107	0xbe98fa95	-0.2987868
108	0xbdd65e9c	-0.10467264
109	0xbe93bbcb	-0.28854212
110	0xbe48df36	-0.19616398
111	0xbebc959c	-0.36832893
112	0xbd017548	-0.03160599
113	0xbe8969d4	-0.26838553
114	0xbb548da8	-0.0032433067
115	0xbeb53f34	-0.35399783
116	0xbe4737ba	-0.19454852
117	0xbe9bfa73	-0.30464515
118	0x3e257d4e	0.16161081
119	0xbe8ad1ec	-0.27113283
120	0xbe628d39	-0.22124185
121	0xbcc07ae8	-0.023496106
122	0xbe80e44a	-0.2517417
123	0xbead671c	-0.3386773
124	0xbe11d513	-0.14241438
125	0x3f0c658a	0.54842436
126	0xbe83d898	-0.25751185
127	0xbe96e7ed	-0.2947382
128	0xbe91e2a2	-0.2849322
129	0x3e8e8f64	0.27843773
130	0xbe0e9732	-0.13924864
131	0xbee0cdba	-0.43906957
132	0xbeabc75b	-0.33550534
133	0xbdccdb35	-0.10002748
134	0x3d9bbb81	0.07604123
135	0xbe5c1012	-0.21490505
136	0x3d06d7ed	0.032920767
137	0xbea9fd6f	-0.33201167
138	0xbec1183d	-0.37713805
139	0xbebbebf2	-0.3670345
140	0xbebc5a4c	-0.3678764
141	0xbe8957c0	-0.2682476
142	0xbea922e5	-0.33034435
143	0xbdee26b5	-0.116284765
144	0x3e1c2074	0.15246755
145	0xbd43ebaa	-0.04783217
146	0x3c85445c	0.016267948
147	0xbe6b3008	-0.22967541
148	0x403119d4	2.7672014
149	0xbe3a3812	-0.18185452
150	0xbe93e4fa	-0.28885633
151	0xbe9e6cb0	-0.30942297
152	0xbe87c43e	-0.26516908
153	0xbea7c21d	-0.32765284
154	0xbe74db64	-0.23911816
155	0xbe96d019	-0.2945564
156	0xbe03cd78	-0.12871349
157	0xbece0b1c	-0.4024285
158	0xbe31cb5e	-0.17362735
159	0xbeb5226a	-0.35377818
160	0xbe82dd04	-0.25559247
161	0xbcf7fded	-0.030272448
162	0xbe8bc5d1	-0.2729936
163	0xbe8fc2e2	-0.2807837
164	0xbec3405e	-0.38135046
165	0xbe7e282d	-0.24820013
166	0x3bbe352c	0.0058046784
167	0xbe923307	-0.28554556
168	0xbe87e7c8	-0.26544023
169	0xbea4fe80	-0.32225418
170	0xbe382419	-0.1798252
171	0xbc83d8e0	-0.016094625
172	0xbe8f94fe	-0.2804336
173	0xbe96d214	-0.29457152
174	0xbeaf672d	-0.34258404
175	0xbe9768ac	-0.29572046
176	0x3ef631c0	0.4808483
177	0xbe987d71	-0.29783204
178	0xbe97e3ba	-0.2966593
179	0xbe1ec255	-0.1550382
180	0xbe96f9d6	-0.29487485
181	0xbe865694	-0.2623793
182	0xbec1bb06	-0.37838
183	0xbeaa4df3	-0.33262596
184	0xbe8358c0	-0.25653648
185	0xbe7c80a0	-0.24658442
186	0xbe28e219	-0.164925
187	0xbe917092	-0.28406197
188	0xbeab43a4	-0.33450043
189	0xbe8bf1d8	-0.2733295
190	0xbed5aa51	-0.41731504
191	0xbdcfb495	-0.10141865
192	0xbea68deb	-0.3253015
193	0x3f1da07e	0.61573017
194	0xbe852ec0	-0.2601223
195	0xbe93fbda	-0.28903085
196	0xbe012a86	-0.12613878
197	0xbe943ea1	-0.28954032
198	0xbea7610c	-0.32691228
199	0xbdb97e58	-0.09057301
200	0xbdee78bf	-0.11644124
201	0xbf4593ff	-0.7717895
202	0xbe9fe3a0	-0.31228352
203	0xbe65544c	-0.22395438
204	0xbe9a7b87	-0.3017237
205	0xbdf5af5e	-0.11996339
206	0xbeb393fb	-0.35073838
207	0xbe117069	-0.14203037
208	0x3f511d4d	0.81685334
209	0xbea9cd44	-0.33164418
210	0xbea27da1	-0.31736472
211	0xbe8ed31f	-0.27895448
212	0xbeaed690	-0.34148073
213	0xbe695a8f	-0.22788452
214	0xbebc1d2b	-0.36741003
215	0xbe4e52c1	-0.20148756
216	0xbe7bfe4b	-0.24608724
217	0xbe9fe450	-0.31228876
218	0xbe92665a	-0.28593713
219	0xbe876f09	-0.264519
220	0xbc761838	-0.015020423
221	0xbe3fde6f	-0.18737195
222	0xbd6a985d	-0.05727421
223	0x3dcccef4	0.10000411
224	0xbe8a3a89	-0.26997784
225	0xbec65050	-0.3873315
226	0xbe7176ef	-0.23580526
227	0xbe822f07	-0.25426504
228	0xbe4a20ad	-0.19739027
229	0xbe769cb4	-0.24083215
230	0x3d15751c	0.036488637
231	0xbe68568e	-0.22689268
232	0xbe817218	-0.2528236
233	0xbeb31684	-0.34978116
234	0xbedea12a	-0.43482333
235	0xbe8f141e	-0.27945036
236	0x3dd5a480	0.104317665
237	0xbe6be658	-0.23037088
238	0xbeee78ec	-0.4657663
239	0xbe97ba89	-0.29634503
240	0xbe9aeacf	-0.3025727
241	0x3f0c92ca	0.5491148
242	0xbea5a2c4	-0.32350743
243	0xbc6d99d0	-0.014502004
244	0xbe8ce037	-0.27514812
245	0xbe66eec0	-0.22552013
246	0xbe832dd7	-0.2562091
247	0xbe7b65e4	-0.24550587
248	0xbece8409	-0.4033511
249	0xbe69b8b6	-0.22824368
250	0xbe6f6fe2	-0.23382524
251	0xbe140ee9	-0.14458813
252	0xbe8e81c0	-0.27833366
253	0xbeafb44f	-0.34317252
254	0xbec6c685	-0.38823333
255	0xbdb709ab	-0.08937391

model/activation_24/Relu;model/batch_normalization_24/FusedBatchNormV3;model/conv2d_12/BiasAdd/ReadVariableOp/resource;model/conv2d_12/BiasAdd;model/conv2d_13/Conv2D;model/conv2d_12/Conv2D f4 [256]
0	0x3d55b1e8	0.052171618
1	0xbf8db473	-1.1070694
2	0xbe1fab35	-0.15592654
3	0xbdc25335	-0.09488527
4	0xbe9532ee	-0.2914042
5	0xbdebde3e	-0.11516999
6	0xbfde11ca	-1.7349179
7	0xbc2e8876	-0.010652652
8	0xbec6b0a2	-0.38806635
9	0xbe1dddfd	-0.15416713
10	0xbdb85916	-0.09001367
11	0xbe72143a	-0.23640528
12	0x3bd287e6	0.0064248918
13	0xbe297b21	-0.16550876
14	0x3d334481	0.043766502
15	0xbb29aaec	-0.002588923
16	0x3e2b7cf5	0.16746886
17	0x3d9c19e0	0.07622123
18	0xbd904195	-0.07043759
19	0xbded2302	-0.11578943
20	0xbdbba18a	-0.091616705
21	0xbdd80078	-0.105469644
22	0x3dbf9cb7	0.09356063
23	0xbe1eb581	-0.15498926
24	0xbe195387	-0.1497327
25	0x3b0c20ea	0.0021381923
26	0xbd9de345	-0.07709364
27	0xbdaa239a	-0.08307572
28	0x3decb344	0.1155763
29	0xbd653bf3	-0.055965375
30	0xbd549faf	-0.0519101
31	0xbe5eabc0	-0.21745205
32	0x3c23e81b	0.010004069
33	0xbd001b39	-0.03127596
34	0xbd2ec3ab	-0.042667072
35	0xbd5f8e88	-0.054579288
36	0xbdb1d2d5	-0.08682791
37	0xbd9bbf93	-0.07604899
38	0x3cef8805	0.029239664
39	0x3dea8490	0.114510655
40	0xbb16d776	-0.0023016608
41	0xbfae7962	-1.3630793
42	0x3f213422	0.62970173
43	0xbe0d0158	-0.13770044
44	0x3fa9bedb	1.326137
45	0x3e3b62a2	0.18299344
46	0x3d86bf8c	0.065795034
47	0x3b2920d2	0.0025806916
48	0xbe9c0edc	-0.30480087
49	0xbd0b76fa	-0.03404901
50	0xbd4b20d9	-0.049591873
51	0xbeaefe00	-0.34178162
52	0xbd03753d	-0.03209423
53	0xbcb8baca	-0.022550005
54	0xbe022718	-0.12710226
55	0x3e1fffea	0.15624967
56	0xbda39d1d	-0.07988951
57	0xbe3b7c76	-0.18309197
58	0x3d0f17d6	0.03493484
59	0xbdd50025	-0.10400418
60	0xbdb0ea52	-0.08638443
61	0x3e241c75	0.1602648
62	0x3f61f4db	0.88264245
63	0xbb31e4bc	-0.0027144393
64	0xbdd36e08	-0.10323721
65	0x3d1e92d9	0.038714264
66	0xbdcf085e	-0.10109018
67	0xbe2f6559	-0.17128505
68	0x3d7c140b	0.061542552
69	0xbdf204de	-0.118173346
70	0xbdc8a758	-0.09797543
71	0x3f2b8e4c	0.67014
72	0xbf0f6329	-0.5601068
73	0xbe1603ec	-0.14649934
74	0xbe5f5f43	-0.21813683
75	0xbdd8ca16	-0.1058542
76	0xbe3c9854	-0.18417484
77	0xbcbd3390	-0.023095876
78	0xbe0c83f9	-0.13722219
79	0xbf01a4a6	-0.5064186
80	0x3d3aee22	0.045637257
81	0xbddddfbd	-0.1083369
82	0xbf10893f	-0.5645942
83	0xbe2aaa1e	-0.16666457
84	0xbce30f46	-0.027717244
85	0xbd55b8f6	-0.052178346
86	0xbd9a2f43	-0.07528546
87	0xbdbb6321	-0.09149767
88	0xbcd2092c	-0.02563914
89	0xbe042ec0	-0.12908459
90	0x3e3a52a6	0.1819559
91	0xbe992694	-0.29912245
92	0xbd6f3d04	-0.0584078
93	0x3ecafec1	0.39647487
94	0xbe8577dd	-0.2606801
95	0x3f9c00d4	1.2187753
96	0xbd320dd9	-0.043470237
97	0xbe425128	-0.18976271
98	0x3f2f89e5	0.68569785
99	0xbf209e65	-0.6274169
100	0x3d8c74a6	0.068581864
101	0xbe50a5d2	-0.20375755
102	0xbda1b77e	-0.078963265
103	0x3e9cafd7	0.30602905
104	0xbdefc3f1	-0.11707295
105	0xbd7f3ff6	-0.062316857
106	0x3d880b0c	0.06642732
107	0xbae8b38d	-0.0017753706
108	0x3ceb5b4f	0.028730063
109	0xbd9569e8	-0.07295591
110	0xbe1ed82e	-0.15512154
111	0xbeb833b7	-0.35976955
112	0x3d8202d5	0.063481964
113	0x3c009dd8	0.007850133
114	0x3e4e54a7	0.2014948
115	0xbe158fa5	-0.14605577
116	0xbe0fd3b1	-0.14045598
117	0xbda33034	-0.079681784
118	0xbe5c1809	-0.21493544
119	0xbb0d71f6	-0.0021582819
120	0xbc632c99	-0.013865613
121	0x3d532a6c	0.05155413
122	0xbe0a20d8	-0.13489091
123	0x39a3f368	0.00031271135
124	0x3c80b47a	0.015711058
125	0xbef88f3d	-0.48546782
126	0xbe2baeb4	-0.16765863
127	0xbe1d047e	-0.15333745
128	0xbeb70632	-0.35746914
129	0x3e4f74d8	0.20259416
130	0x3ce59180	0.028023481
131	0xbe276816	-0.163483
132	0xbe0ef07c	-0.13958925
133	0x3ece4b84	0.4029199
134	0xbfacfc80	-1.3514557
135	0xbebdd280	-0.3707466
136	0x3e402f3e	0.18768021
137	0xbc5bcce2	-0.013415547
138	0xbe06e6af	-0.13173936
139	0xbd7fe44e	-0.062473588
140	0xbe2118fa	-0.15732184
141	0xbe0ae56d	-0.13564081
142	0xbdc4795e	-0.095934615
143	0x3d222f20	0.039595723
144	0x3e991a93	0.29903087
145	0x3db78840	0.089615345
146	0x3d605dea	0.054777063
147	0xbe40b1e7	-0.18817864
148	0x3fbbcf49	1.4672633
149	0xbe5d5bde	-0.21617076
150	0xbd4711a7	-0.04860082
151	0xbd3192c7	-0.04335287
152	0xbe07f039	-0.13275231
153	0xbc6b01c9	-0.014343687
154	0xbe091da5	-0.13390215
155	0xbea1a03b	-0.3156756
156	0x3d5794c2	0.0526321
157	0xbd7db9a8	-0.061944634
158	0xbe107382	-0.14106563
159	0x3ad5efb0	0.0016322043
160	0xbdc2e9b2	-0.0951723
161	0x3eabc418	0.33548045
162	0xbdba3286	-0.09091668
163	0xbd0a2df3	-0.033735227
164	0x3c25c814	0.010118503
165	0x3d476212	0.04867751
166	0x3d94c831	0.07264746
167	0xbd6e905c	-0.05824314
168	0xbdf2828c	-0.11841306
169	0xbde2c200	-0.11072159
170	0xbe32c79b	-0.17458956
171	0x3da2b6cb	0.07945021
172	0xbdab97b6	-0.08378546
173	0xbe5b6c1c	-0.21427959
174	0xbdea6782	-0.11445524
175	0xbe1abc93	-0.15110998
176	0xbf19882b	-0.599734
177	0xbdf99695	-0.12186924
178	0xbdcef77b	-0.10105797
179	0xbd84cdd8	-0.06484574
180	0xbd33f04a	-0.04393033
181	0xbe569fd8	-0.20959413
182	0xbe1f96c7	-0.1558486
183	0x3c86becf	0.016448407
184	0xbe80d1bb	-0.25160012
185	0xbdb33eab	-0.08752187
186	0x3ceca44c	0.028886937
187	0xbe40fdde	-0.18846843
188	0xbc9ba607	-0.019000066
189	0xbe0d541d	-0.13801618
190	0xbe126458	-0.1429609
191	0xbe57532e	-0.21027824
192	0xbd5cf28c	-0.05394225
193	0xbfb3e8d7	-1.4055432
194	0xbd430b79	-0.047618363
195	0xbe2accda	-0.16679707
196	0x3d278327	0.04089656
197	0xbe7a0536	-0.2441605
198	0x3a62de74	0.0008654364
199	0xbe296441	-0.1654215
200	0x3e990d1c	0.29892814
201	0xbf0955d0	-0.53646564
202	0xbd2262af	-0.039644893
203	0xbd9e3b2c	-0.0772613
204	0xbcf4cc18	-0.029882476
205	0x3d30fc0a	0.043209113
206	0xbded96a9	-0.11601002
207	0xbe6b4516	-0.22975573
208	0x3f995105	1.197785
209	0xbd7fe704	-0.062476173
210	0xbe62a235	-0.2213219
211	0xbe4352f8	-0.19074619
212	0xbe99e11c	-0.30054557
213	0xba8e0184	-0.0010834192
214	0xbe1e9ebe	-0.15490243
215	0xbe16dcf4	-0.14732724
216	0xbe14dc08	-0.1453706
217	0xbe0c84e9	-0.13722576
218	0xbdb5775d	-0.08860657
219	0xbe447e18	-0.19188726
220	0x3d82c84f	0.06385862
221	0xbd807dab	-0.06273969
222	0x3d280afe	0.041026108
223	0xbf7a771b	-0.9783799
224	0xbc0e6854	-0.008691866
225	0xbde9c118	-0.11413783
226	0x3cd0b228	0.025475577
227	0xbdf033cd	-0.1172863
228	0xbd92cd1e	-0.07168029
229	0xbd4e7a4b	-0.050409596
230	0x3e0ca7f5	0.13735946
231	0xbd8210d0	-0.06350863
232	0xbc37d4f4	-0.011220206
233	0xbea1269f	-0.31474778
234	0xbd9a48dd	-0.07533429
235	0xbe37c5cb	-0.17946546
236	0xbfb04914	-1.3772302
237	0xbe15dff7	-0.14636217
238	0xbe3542c1	-0.17701246
239	0xbdcf3f41	-0.101194866
240	0xbd488ecf	-0.048964318
241	0x3fa5a3d2	1.2940619
242	0xbc43e0cb	-0.01195545
243	0x3c96d72e	0.018413153
244	0xbd24847f	-0.04016542
245	0x3c45d5c4	0.0120748915
246	0xbada89f8	-0.0016673198
247	0x3e95cad5	0.2925631
248	0xbdaeb8b7	-0.08531325
249	0xbd0bf7da	-0.034171917
250	0xbe1e677b	-0.15469162
251	0x3d01be42	0.031675585
252	0xbe1a6d1c	-0.15080684
253	0xbcb09fbc	-0.021560542
254	0xbd9f45e7	-0.07777005
255	0x3d2395b0	0.039937675

model/activation_23/Relu;model/batch_normalization_23/FusedBatchNormV3;model/depthwise_conv2d_11/depthwise;model/depthwise_conv2d_11/BiasAdd;model/depthwise_conv2d_11/BiasAdd/ReadVariableOp/resource f4 [128]
0	0xbe9bbb30	-0.3041625
1	0x3e0eb0ce	0.13934633
2	0xbe58d943	-0.21176629
3	0xbe8a5793	-0.2701994
4	0xbe92bcfa	-0.28659803
5	0xbe9f4b96	-0.31112355
6	0x3ebeb955	0.37250772
7	0xbe4e2cb2	-0.20134237
8	0xbe7e9bb1	-0.24864079
9	0x3e706a6b	0.23478095
10	0x3f158bf0	0.5841665
11	0xbeb063d4	-0.34451163
12	0xbc73ecaa	-0.014887968
13	0xbe80173e	-0.25017732
14	0xbe921226	-0.2852947
15	0xbf167c27	-0.5878319
16	0xbebc6bde	-0.36801046
17	0xbf04d252	-0.51883423
18	0xbd894285	-0.06702141
19	0xbe8d9772	-0.27654606
20	0xbe8e273e	-0.27764314
21	0xbe8e026f	-0.27736232
22	0x3d24e31b	0.040255647
23	0xbea4502a	-0.3209241
24	0xbeb1567f	-0.34636304
25	0xbeb14ab4	-0.34627306
26	0xbf014d49	-0.5050855
27	0xbe74f8b5	-0.23922999
28	0xbe3ef556	-0.18648276
29	0xbebfb8ba	-0.37445623
30	0xbe87c708	-0.26519036
31	0xbe1c6be4	-0.15275532
32	0xbe00afc5	-0.12567051
33	0xbea8a9a1	-0.32941917
34	0xbea26158	-0.31714892
35	0xbe08c546	-0.13356504
36	0x3effa5c4	0.49931157
37	0xbe7b97ff	-0.245697
38	0xbe652d64	-0.22380596
39	0xbd8f303d	-0.069916226
40	0xbea28250	-0.31740046
41	0xbe8a5e28	-0.2702496
42	0xbe9ca531	-0.3059478
43	0xbf7ac6f6	-0.9795984
44	0xbe8bab12	-0.27278954
45	0xbe695f90	-0.2279036
46	0xbe9869b2	-0.2976814
47	0xbeb6576a	-0.35613567
48	0xbd223f40	-0.0396111
49	0x3e703d41	0.23460867
50	0xbe97a4a9	-0.29617813
51	0xbe2262f5	-0.15858062
52	0xbf696de5	-0.9118331
53	0xbe255898	-0.16147077
54	0xbc94c448	-0.01816
55	0xbeb74ef7	-0.35802433
56	0xbe8a9320	-0.27065372
57	0xbea013a3	-0.31264982
58	0xbeab0f68	-0.33410192
59	0x3ddbafac	0.10726866
60	0xbea93323	-0.33046827
61	0xbf52f5b3	-0.8240616
62	0x3ed254f9	0.41080454
63	0xbea9eaa8	-0.3318684
64	0xbe859974	-0.26093638
65	0xbc9f9e68	-0.019484714
66	0xbeaf2c54	-0.34213507
67	0xbe9919a4	-0.29902375
68	0xbc4cddd4	-0.01250406
69	0xbef33bf4	-0.47506678
70	0xbe81b48c	-0.2533306
71	0xbe948c42	-0.29013258
72	0xbe3b05d6	-0.18263945
73	0xbe94365d	-0.28947726
74	0xbfa65641	-1.2995073
75	0xbeacae74	-0.33726847
76	0xbf27b7b5	-0.6551469
77	0xbd95abd9	-0.07308168
78	0x3c3245f0	0.010880932
79	0xbe871e59	-0.2639034
80	0xbe910a88	-0.28328347
81	0xbe78651c	-0.2425732
82	0xbee619c7	-0.44941542
83	0xbe6586c8	-0.22414696
84	0xbedb125b	-0.42787442
85	0xbdb65795	-0.08903424
86	0xbe97abef	-0.29623362
87	0xbddc71b5	-0.107638754
88	0xbe704016	-0.23461947
89	0x3f0b7a64	0.5448363
90	0xbe98a475	-0.2981297
91	0xbf2e480f	-0.680787
92	0xbde096f2	-0.109662905
93	0xbea1cbb6	-0.31600732
94	0xbd0f8e0a	-0.03504757
95	0xbeafe45c	-0.34353912
96	0xbea29de2	-0.3176108
97	0x3e920da4	0.28526032
98	0xbea333f0	-0.31875563
99	0xbe8593d6	-0.26089352
100	0xbea2d28a	-0.31801254
101	0xbdad2e37	-0.084560804
102	0xbe727412	-0.2367709
103	0xbeacbfb3	-0.33740005
104	0xbeaf784b	-0.34271464
105	0xbec70b8f	-0.38876006
106	0x3eb3c99f	0.35114762
107	0xbe7a1c47	-0.2442485
108	0x3eef0b34	0.46688235
109	0x3e94676e	0.2898516
110	0xbdb69af8	-0.08916277
111	0x3ec3a5a6	0.38212317
112	0x3ed0f352	0.4081064
113	0xbeb95270	-0.36195707
114	0xbea97aa7	-0.3310139
115	0x3dd676f7	0.104719095
116	0xbe8717a8	-0.26385236
117	0xbe8a3b12	-0.26998192
118	0xbdb5fc36	-0.08885996
119	0xbe8374b5	-0.25674978
120	0xbdcafc4e	-0.099114046
121	0x3e6a025a	0.2285246
122	0xbb9b0212	-0.0047304714
123	0x3efdaabc	0.49544322
124	0xbcfffd9d	-0.031248862
125	0xbecc8855	-0.39947763
126	0x3d769d76	0.06020876
127	0xbf496b32	-0.7867919

model/activation_22/Relu;model/batch_normalization_22/FusedBatchNormV3;model/conv2d_11/BiasAdd/ReadVariableOp/resource;model/conv2d_11/BiasAdd;model/depthwise_conv2d_11/depthwise;model/conv2d_11/Conv2D f4 [128]
0	0xbdc17594	-0.094462544
1	0xbdb224ce	-0.08698426
2	0x3ed73e71	0.42039827
3	0xbde5fb5b	-0.11229583
4	0xbdb427dd	-0.08796666
5	0xbd0a650e	-0.03378778
6	0x3f40a49f	0.7525119
7	0xbe9b8408	-0.3037417
8	0x3ea1c713	0.31597194
9	0x3f34c863	0.70618266
10	0x3f61fe42	0.8827859
11	0xbdf2aa05	-0.11848835
12	0x3e173a72	0.14768389
13	0xbe694c0a	-0.22782913
14	0x3eab5a50	0.3346734
15	0x3e89ccfd	0.26914206
16	0xbd3d44a6	-0.046208046
17	0x3e890fcf	0.26769873
18	0x3d95ccb4	0.07314435
19	0xbda2baf6	-0.07945816
20	0xbdff1079	-0.12454314
21	0xbcdc20fc	-0.026871197
22	0x3f0f1fa8	0.5590768
23	0xbd5f2b22	-0.054484494
24	0xbdc6296a	-0.09675868
25	0xbd87a642	-0.06623508
26	0xbe89827e	-0.2685737
27	0x3ec8dd4b	0.39231333
28	0x3d3d493c	0.04621242
29	0xbd7dc8ba	-0.061959006
30	0xbde46bfd	-0.1115341
31	0x3c9d3881	0.019191982
32	0x3ec36f36	0.38170785
33	0xbe54c291	-0.20777346
34	0xbc08b04c	-0.008342814
35	0x3d40156e	0.046895437
36	0xba2c19b4	-0.00065651094
37	0xbe254b88	-0.16142094
38	0xbe28604a	-0.16442981
39	0x3ecc641a	0.3992012
40	0xbe16eb99	-0.14738311
41	0x3d808938	0.062761724
42	0xbe07e429	-0.1327063
43	0x3f25c990	0.64760685
44	0xbe855dc5	-0.26048103
45	0xbdc7b0ac	-0.09750494
46	0xbe4e48b7	-0.20144926
47	0xbce16728	-0.027515009
48	0x3d334239	0.043764327
49	0xbe63eccb	-0.22258298
50	0x3bf4fa14	0.0074761007
51	0x3f1605eb	0.5860278
52	0x3f79d190	0.9758539
53	0x3cc4eeb1	0.024039598
54	0x3ee03440	0.43789864
55	0xbb0d8388	-0.0021593291
56	0xbe15a597	-0.14613949
57	0xbe31c288	-0.17359364
58	0xbccb2ad0	-0.024800688
59	0x3ec9b2a2	0.393941
60	0xbdfe9fa4	-0.12432793
61	0x3db6025f	0.08887171
62	0x3da98ab9	0.08278412
63	0xbd378d17	-0.044812288
64	0xbdf8f840	-0.12156725
65	0x3eff107a	0.49817258
66	0xbd157d78	-0.03649661
67	0xbcd8e3f0	-0.026475877
68	0x3d3b3e91	0.045713965
69	0x3f22c7b3	0.63585967
70	0xbcfcc720	-0.030856669
71	0xbd2102ec	-0.039309427
72	0x3ec1d776	0.37859696
73	0xbd5d113a	-0.053971507
74	0x3e82dfef	0.25561473
75	0xbc273121	-0.010204584
76	0x3f8e8594	1.1134515
77	0x3cfe3c9b	0.031034758
78	0x3e85ab40	0.26107216
79	0xbe13cee7	-0.14434396
80	0xbe728c5e	-0.23686358
81	0x3bafd48a	0.005365913
82	0x3bb08623	0.005387084
83	0xbe69e9c6	-0.22843084
84	0xbd9f5146	-0.077791736
85	0x3ed9fd9c	0.425763
86	0xbdbae3a1	-0.09125448
87	0x3c3024b4	0.010750938
88	0xbdc7a67b	-0.097485505
89	0x3d7083f9	0.05871961
90	0xbd267aba	-0.040644385
91	0x3f1a96e2	0.6038648
92	0xbde329e7	-0.110919766
93	0xbe05dead	-0.13073225
94	0x3d35c69a	0.044378854
95	0xbd0b8089	-0.034058128
96	0xbcb59a82	-0.022168402
97	0x3f1a5632	0.60287774
98	0xbe1b5281	-0.15168191
99	0xbdc5a1b8	-0.09649986
100	0xbd836d28	-0.06417304
101	0xbd07c8c0	-0.033150434
102	0xbda3897f	-0.0798521
103	0xbe986865	-0.29767147
104	0xbc75d400	-0.015004158
105	0xbca55c19	-0.020185517
106	0xbc2de59c	-0.010613825
107	0xbdbc1548	-0.091837466
108	0xbcb19da8	-0.021681622
109	0x3df97e21	0.1218226
110	0x3d318ab5	0.043345172
111	0x3f82b789	1.021226
112	0x3df7136c	0.12064251
113	0xbdc4ac0c	-0.09603128
114	0xbe10dc3a	-0.1414651
115	0x3e36aff1	0.17840554
116	0xbe1cdd2d	-0.15318747
117	0xbdeb4c76	-0.11489193
118	0xbe19b072	-0.15008715
119	0xbda9ca25	-0.08290509
120	0x3d5ce2ff	0.053927418
121	0x39b2d880	0.0003411211
122	0x3ee6b7dd	0.45062152
123	0x3daf93be	0.085731015
124	0x3cf39094	0.029732026
125	0xbc8c514c	-0.01712861
126	0x3da957f7	0.08268731
127	0xbd1d21e8	-0.038362414

model/activation_21/Relu;model/batch_normalization_21/FusedBatchNormV3;model/depthwise_conv2d_10/depthwise;model/depthwise_conv2d_10/BiasAdd;model/depthwise_conv2d_11/depthwise;model/depthwise_conv2d_10/BiasAdd/ReadVariableOp/resource f4 [128]
0	0xbe959e46	-0.29222316
1	0xbeb7e16b	-0.35914168
2	0xbecdb1c6	-0.40174693
3	0xbeaac5c3	-0.33354005
4	0xbea41e6c	-0.3205446
5	0xbeead985	-0.4586908
6	0x3f337f03	0.7011568
7	0xbeac2d67	-0.3362839
8	0xbe7cdfa4	-0.24694687
9	0xbec84ee0	-0.39122677
10	0xbe460247	-0.19336806
11	0xbeb40562	-0.35160357
12	0xbec0a102	-0.3762284
13	0xbe9a94d1	-0.30191663
14	0xbe44767a	-0.1918582
15	0xbeb7e4b8	-0.35916686
16	0xbf8b85cd	-1.0900208
17	0xbe8942f9	-0.2680891
18	0xbec0936a	-0.37612468
19	0xbe88d8d0	-0.26727915
20	0xbeb75007	-0.35803244
21	0xbd4b3d05	-0.04961874
22	0x3dc30ea2	0.09524275
23	0xbe98c511	-0.2983785
24	0xbe99ab6e	-0.30013603
25	0xbd4ad234	-0.04951687
26	0x3d776622	0.060400136
27	0x3d5c2f0c	0.053755805
28	0xbeab035b	-0.33400998
29	0xbea83707	-0.32854483
30	0xbeb9bae2	-0.36275393
31	0xbed0b672	-0.40764195
32	0xbe8f06ea	-0.27934963
33	0xbea85bc8	-0.32882524
34	0xbe9e01ab	-0.30860648
35	0xbea4d7d6	-0.3219592
36	0xbe98f5ef	-0.29875132
37	0xbea13f36	-0.3149354
38	0xbeb76a6c	-0.3582338
39	0xbeb801c8	-0.3593886
40	0xbeb660e5	-0.356208
41	0x3bc6e576	0.0060698343
42	0xbec0d27f	-0.37660596
43	0xbecd33ec	-0.40078676
44	0xbe926470	-0.28592253
45	0xbe99c4b2	-0.3003288
46	0xbe9b3cb4	-0.3031975
47	0xbe9d408e	-0.30713314
48	0xbe808719	-0.2510307
49	0xbeb5d11e	-0.35511106
50	0xbeba4cfc	-0.3638686
51	0xbec2370f	-0.3793263
52	0xbe9b809a	-0.30371553
53	0xbf43160e	-0.7620553
54	0xbed36bea	-0.4129327
55	0xbc4d93e8	-0.012547471
56	0xbeb88e7f	-0.36046216
57	0xbea50391	-0.32229283
58	0xbeb5c46f	-0.3550143
59	0xbee89c3d	-0.454317
60	0x3f00349a	0.50080264
61	0xbeb7ce90	-0.35899782
62	0xbe89e69a	-0.26933748
63	0x3e493c38	0.19651878
64	0xbf92b3cd	-1.1461121
65	0xbfa45128	-1.2837267
66	0xbc869900	-0.016430378
67	0xbeba22fa	-0.3635481
68	0xbe915093	-0.28381786
69	0x3e94e9f8	0.29084754
70	0xbe4dfdde	-0.20116374
71	0xbe6701c1	-0.22559263
72	0xbecac2d6	-0.39601773
73	0xbd70b3ba	-0.05876515
74	0xbe8d3b3a	-0.2758425
75	0xbeafec0d	-0.3435978
76	0xbebbb0e4	-0.36658394
77	0xbea06e2e	-0.3133406
78	0xbb883df0	-0.004157774
79	0xbea7c3da	-0.3276661
80	0xbe8b58cd	-0.27216187
81	0xbf07654c	-0.5288894
82	0xbe7c19f7	-0.2461928
83	0xbea6af7b	-0.32555756
84	0xbe8c4838	-0.2739885
85	0xbe8ef5f4	-0.27922022
86	0xbeb2f92e	-0.34955734
87	0x3eb660ab	0.35620627
88	0x3f47810a	0.77931273
89	0xbeaf7906	-0.3427202
90	0xbe6ad08e	-0.2293112
91	0xbe94e3bd	-0.2908
92	0x3e50908b	0.20367639
93	0xbecb93df	-0.39761254
94	0xbeda8253	-0.42677554
95	0xbeb8b6ce	-0.3607697
96	0xbe897f21	-0.26854804
97	0xbe9e6ee3	-0.30943975
98	0xbe93f184	-0.288952
99	0xbebdbc26	-0.37057608
100	0xbe13ab8a	-0.14420906
101	0xbe455237	-0.19269644
102	0xbe53d1df	-0.20685528
103	0xbeb9d420	-0.3629465
104	0xbe903256	-0.28163403
105	0xbead8d35	-0.33896795
106	0xbf7e4234	-0.9931977
107	0xbe81eecc	-0.253775
108	0xbee5c1a1	-0.4487429
109	0xbe147c3f	-0.14500521
110	0xbeab47e1	-0.33453277
111	0xbe94346c	-0.28946245
112	0xbebbbdc4	-0.36668217
113	0xbe43c31d	-0.19117399
114	0xbd960a81	-0.07326222
115	0xbec04293	-0.37550792
116	0xbeac6726	-0.33672446
117	0xbed1e6c8	-0.40996385
118	0xbed8b4ff	-0.4232559
119	0xbebf54af	-0.37369296
120	0xbea0113f	-0.31263158
121	0xbead4bd7	-0.33846924
122	0xbe9cfd52	-0.30662018
123	0xbe8b90b8	-0.2725885
124	0xbdb57575	-0.08860294
125	0xbead0619	-0.33793715
126	0xbea584e0	-0.32327938
127	0xbe8670a2	-0.26257807

model/activation_20/Relu;model/batch_normalization_20/FusedBatchNormV3;model/conv2d_10/BiasAdd/ReadVariableOp/resource;model/conv2d_10/BiasAdd;model/depthwise_conv2d_11/depthwise;model/conv2d_10/Conv2D f4 [128]
0	0xbe7efb9a	-0.24900666
1	0xbe4fe793	-0.20303182
2	0xbd57e1ea	-0.052705683
3	0xbe384150	-0.17993665
4	0xbe2d2db3	-0.16911964
5	0x3dc3efcd	0.09567223
6	0xbe9ad824	-0.30243027
7	0xbe305b07	-0.17222224
8	0x3ea565af	0.3230414
9	0xbd74a1bc	-0.059724554
10	0x3da51502	0.080606475
11	0xbe1ea302	-0.1549187
12	0xbe30f737	-0.17281805
13	0xbe8281ff	-0.25489804
14	0xbd373dfe	-0.044736855
15	0xbca187a3	-0.019717997
16	0x3ea71766	0.3263504
17	0xbe0e1603	-0.13875584
18	0xbe03088e	-0.12796232
19	0xbe6232d1	-0.22089697
20	0xbe594f30	-0.21221614
21	0x3e4ecf5a	0.20196286
22	0x3d655336	0.05598756
23	0xbd3e5e0a	-0.0464764
24	0xbd87d812	-0.06633009
25	0x3e99941d	0.29995814
26	0x3d3093e5	0.043109793
27	0x3d27d103	0.040970813
28	0xbe1458af	-0.14486955
29	0xbcbac26c	-0.022797786
30	0xbe380610	-0.17971063
31	0x3f10e1e3	0.56594676
32	0x39a9be00	0.00032375753
33	0xbd60b97e	-0.0548644
34	0xbd70aefc	-0.058760628
35	0xbe6410d5	-0.22272046
36	0xbe8cfd70	-0.27537107
37	0xbde4ae57	-0.11166065
38	0xbde686b0	-0.11256158
39	0xbd65213f	-0.05593991
40	0x3c565caa	0.013083616
41	0x3dfbfc53	0.123039864
42	0xbe0ef912	-0.139622
43	0xbd888f1e	-0.066679224
44	0x3bf7c540	0.007561356
45	0xbe3f29b4	-0.18668252
46	0xbdafa18f	-0.08575737
47	0xbe17e069	-0.148317
48	0xbe880387	-0.2656519
49	0xbc9591bb	-0.018257966
50	0xbdaaae81	-0.08334065
51	0xbd8538a5	-0.06504945
52	0xbe0af84f	-0.13571285
53	0x3e97ce15	0.29649416
54	0xbe0852e3	-0.13312869
55	0x3d33e816	0.043922506
56	0xbc87c5cb	-0.016573807
57	0xbe1d1cc7	-0.15343009
58	0xbcfd177f	-0.030894993
59	0xbe68df00	-0.22741318
60	0xbf89c602	-1.0763552
61	0xbd9c1e13	-0.07622924
62	0xbc36ed58	-0.011164986
63	0x3eed1656	0.46306103
64	0x3dd1a882	0.102372184
65	0x3ea4ed14	0.32212126
66	0x3cc58089	0.024109142
67	0xbd9dc604	-0.07703784
68	0xbde69821	-0.11259485
69	0x3f92d84e	1.1472261
70	0xbdd4adf0	-0.103847384
71	0x3ec02b06	0.37532824
72	0xbdb3a533	-0.087717436
73	0x3e80dc21	0.25167945
74	0xbe29c1c8	-0.16577828
75	0xbdcfa819	-0.10139484
76	0xbdd674c7	-0.10471492
77	0xbd0ba5ae	-0.03409355
78	0xbdcbb6b3	-0.099469565
79	0xbe16e084	-0.14734083
80	0xbe44459a	-0.19167176
81	0x3e820890	0.25397158
82	0xbe392efa	-0.18084326
83	0xbdce1d7e	-0.10064219
84	0xbe2c89bc	-0.16849416
85	0xbe3caf4b	-0.18426244
86	0xbe9648a9	-0.2935231
87	0xbee18809	-0.440491
88	0x3ea1fdaa	0.31638843
89	0xbd8dba29	-0.06920273
90	0x3e0a675c	0.13515991
91	0xbe781992	-0.24228504
92	0x3f7434c1	0.95392996
93	0xbd360eeb	-0.04444782
94	0xbe261a04	-0.16220862
95	0xbc33af3a	-0.01096707
96	0xbe1a7f7d	-0.15087695
97	0xbdbdf1db	-0.09274646
98	0xbe0e8d6c	-0.13921136
99	0xbdd7bfb8	-0.10534614
100	0x3ec38969	0.38190773
101	0xbd9f2cfc	-0.07772252
102	0x3cb68398	0.022279546
103	0xbe3d4558	-0.18483484
104	0xbe3452b5	-0.17609675
105	0xbc3a12c4	-0.011357013
106	0x3f1cd65a	0.61264575
107	0x3cbb685e	0.022876915
108	0x3ea5c1b0	0.32374334
109	0x3cadab1a	0.021199752
110	0xbd8bb844	-0.06822255
111	0xbe2a507a	-0.16632262
112	0xbdb3f36f	-0.08786666
113	0x3e7f5f5f	0.24938725
114	0x3e479dd8	0.19493806
115	0xbc2010fa	-0.0097696725
116	0xbc295b18	-0.01033666
117	0xbe6aa300	-0.22913742
118	0x3e720d0a	0.23637787
119	0xbca77e9b	-0.020446112
120	0xbda86615	-0.082225956
121	0xbd9884c4	-0.07447198
122	0xbe35de2a	-0.1776053
123	0xbd2c91a0	-0.042131066
124	0x3eb91b63	0.36153707
125	0xbe294303	-0.16529469
126	0xbdcc8172	-0.09985627
127	0xbe27da08	-0.16391766

model/activation_2/Relu;model/batch_normalization_2/FusedBatchNormV3;model/conv2d_1/BiasAdd/ReadVariableOp/resource;model/conv2d_1/BiasAdd;model/depthwise_conv2d_1/depthwise;model/conv2d_1/Conv2D f4 [16]
0	0xbf4ab91e	-0.79188716
1	0x3f77f8f4	0.9686425
2	0xbe6c9d71	-0.23106934
3	0x3ece82a5	0.4033405
4	0x3f0f0956	0.5587362
5	0x3da8049c	0.08204004
6	0xbf7ad7f4	-0.9798577
7	0x3fdd19f6	1.7273548
8	0x3f8a3dd6	1.0800121
9	0xbcb2e2a2	-0.021836583
10	0x3fb82ede	1.4389303
11	0x3f3289ec	0.697417
12	0xbfcd1b9b	-1.602405
13	0xbd0f3997	-0.03496703
14	0x3fe655fa	1.7994988
15	0xbe0a72ce	-0.13520357

model/activation_19/Relu;model/batch_normalization_19/FusedBatchNormV3;model/depthwise_conv2d_9/depthwise;model/depthwise_conv2d_9/BiasAdd;model/depthwise_conv2d_11/depthwise;model/depthwise_conv2d_9/BiasAdd/ReadVariableOp/resource f4 [128]
0	0xbed14a28	-0.4087689
1	0xbebf0e6f	-0.373157
2	0xbf817147	-1.0112695
3	0xbea88bca	-0.3291915
4	0xbea45ced	-0.32102147
5	0xbe00884f	-0.12551998
6	0xbe2ac61f	-0.1667714
7	0xbec99900	-0.39374542
8	0xbee36f48	-0.44420838
9	0xbed2e118	-0.41187358
10	0xbede476b	-0.43413863
11	0xbed215d6	-0.41032284
12	0xbda4d343	-0.080481075
13	0xbea6c9d0	-0.32575846
14	0xbebfb352	-0.37441498
15	0xbe8e2b59	-0.27767447
16	0xbf2d47e7	-0.6768784
17	0xbedd2b48	-0.43197083
18	0xbd994ee8	-0.07485753
19	0xbd9c7e0e	-0.076412305
20	0xbeca9304	-0.3956529
21	0xbe507b39	-0.20359506
22	0xbebeae4a	-0.37242347
23	0x3f01d0aa	0.5070902
24	0xbec4e54c	-0.3845619
25	0xbeb2557c	-0.34830844
26	0xbea67b10	-0.32515764
27	0x3d89ec98	0.0673458
28	0xbeb53399	-0.35390928
29	0xbeadb713	-0.33928737
30	0xbea5669e	-0.32304853
31	0xbeaff668	-0.3436768
32	0xbe9ca8e2	-0.30597597
33	0xbeb6a4a6	-0.35672492
34	0xbef2c5ee	-0.47416633
35	0xbed2421a	-0.41066056
36	0xbea30a38	-0.31843734
37	0xbeba260b	-0.3635715
38	0xbe9d0bbb	-0.30673012
39	0xbec84220	-0.3911295
40	0xbe9aa888	-0.30206704
41	0xbed37d61	-0.41306594
42	0xbe7ce2f7	-0.24695955
43	0xbe8a9a16	-0.27070683
44	0xbeb938d6	-0.36176175
45	0xbeca1576	-0.39469498
46	0xbea0f6b7	-0.31438228
47	0xbe94fc05	-0.29098526
48	0xbecb046e	-0.39651817
49	0xbd7eea29	-0.06223503
50	0xbe9e195b	-0.3087872
51	0xbeb3ad96	-0.35093373
52	0xbecbd298	-0.39809108
53	0xbfb9ee14	-1.4525781
54	0xbf034b37	-0.51286644
55	0xbf2d7898	-0.67762136
56	0xbebf0307	-0.37306997
57	0xbeb1e2ec	-0.3474344
58	0xbe990862	-0.29889208
59	0xbedaae1e	-0.42710966
60	0xbea9ce4f	-0.33165213
61	0xbeacc2c0	-0.33742332
62	0xbec4daf0	-0.38448286
63	0xbed90697	-0.4238784
64	0xbeeaf45a	-0.4588955
65	0xbed4da74	-0.41572917
66	0xbe998b26	-0.29988974
67	0xbeb6ae9e	-0.35680097
68	0xbe8f8434	-0.2803055
69	0xbed3087f	-0.4121742
70	0xbf50acd0	-0.8151369
71	0xbebfedc4	-0.37486088
72	0xbed4482f	-0.41461322
73	0xbd45b394	-0.048266962
74	0xbda46322	-0.080267206
75	0xbf87dcf6	-1.0614307
76	0x3f0f1e07	0.55905193
77	0xbec1f54b	-0.37882456
78	0xbebb1ac0	-0.36543846
79	0xbea47f12	-0.32128197
80	0xbebf43aa	-0.3735631
81	0xbe9a4bc9	-0.30135944
82	0x3d5b0190	0.053468287
83	0xbea74771	-0.32671693
84	0xbf95d612	-1.1705954
85	0xbee8d322	-0.45473582
86	0xbf0b33db	-0.54376
87	0xbe95cdfc	-0.29258716
88	0xbeb9720d	-0.36219826
89	0xbeb89abe	-0.3605556
90	0xbeadc652	-0.3394037
91	0xbe8c04e4	-0.2734748
92	0xbedcbd48	-0.4311316
93	0xbe9dca94	-0.30818617
94	0xbeb936c6	-0.361746
95	0xbdaf267f	-0.085522644
96	0xbebd1255	-0.3692805
97	0xbea806e5	-0.3281776
98	0xbfa264da	-1.2687027
99	0xbfb248a6	-1.392842
100	0xbeb08a11	-0.34480336
101	0xbed0c8d7	-0.4077823
102	0xbf9510a2	-1.1645701
103	0xbcbb886a	-0.022892196
104	0xbedc51cb	-0.43031153
105	0xbe35d92e	-0.17758629
106	0xbef50828	-0.47857785
107	0xbed741a8	-0.4204228
108	0xbeb30ef9	-0.3497236
109	0xbeabd6f2	-0.33562428
110	0xbec937cb	-0.3930038
111	0xbecd4290	-0.40089846
112	0xbec765bf	-0.38944814
113	0xbefdc566	-0.49564666
114	0xbef74401	-0.4829407
115	0xbea021ea	-0.31275874
116	0xbeb46c64	-0.35238945
117	0xbeca3708	-0.3949511
118	0xbeb5fbb6	-0.35543603
119	0xbf2b5bac	-0.66936755
120	0xbeb851a2	-0.3599978
121	0xbe974ef0	-0.29552412
122	0xbf09793c	-0.53700614
123	0xbe976bdf	-0.29574487
124	0xbec80eb9	-0.39073732
125	0xbe4d91d8	-0.20075166
126	0xbe42c995	-0.1902221
127	0xbe08a236	-0.13343129

model/activation_18/Relu;model/batch_normalization_18/FusedBatchNormV3;model/conv2d_9/BiasAdd/ReadVariableOp/resource;model/conv2d_9/BiasAdd;model/depthwise_conv2d_11/depthwise;model/conv2d_9/Conv2D f4 [128]
0	0xbda5ffef	-0.08105456
1	0xbd93aaaf	-0.0721029
2	0xbf70be77	-0.94040626
3	0xbd2af465	-0.04173698
4	0xbdbb379f	-0.09141468
5	0xbe02ceca	-0.12774196
6	0x3f01e5b5	0.5074113
7	0xbda36c98	-0.07979697
8	0x3bc8f498	0.0061326735
9	0xbe4b8a48	-0.19876969
10	0xbdeca963	-0.115557455
11	0xbe252b81	-0.16129877
12	0xbfd3b04d	-1.6538178
13	0xbe6f756e	-0.2338464
14	0xbde55285	-0.1119738
15	0xbe158e3b	-0.14605038
16	0x3fdae1a2	1.7100108
17	0xbe68d747	-0.22738372
18	0x3cde8cfb	0.027166834
19	0x3d701329	0.058612023
20	0xbdc58cb4	-0.096459776
21	0xbe26509a	-0.16241685
22	0xbd07ba82	-0.033136852
23	0x3f8c1e81	1.0946809
24	0xbe1c0abe	-0.15238473
25	0xbea7061e	-0.32621855
26	0xbe043d04	-0.129139
27	0x3d941d54	0.072321564
28	0xbe83134f	-0.2560067
29	0xbe305236	-0.17218861
30	0xbdd18cf7	-0.10231965
31	0xbe447769	-0.19186176
32	0xbe6a7f5c	-0.22900146
33	0xbdcf2faf	-0.10116517
34	0xbf38f2bd	-0.7224539
35	0xbe532ff0	-0.20623755
36	0xbe58ccc0	-0.21171856
37	0xbe23285a	-0.15933362
38	0xbe7b3bbd	-0.24534507
39	0xbe521ed6	-0.20519575
40	0xbe72d7fd	-0.23715205
41	0xbe1391e8	-0.14411128
42	0x3c22ac42	0.009928765
43	0xbe320ddc	-0.173881
44	0xbe18a0c2	-0.14905074
45	0xbd8b45aa	-0.06800397
46	0xbdc2e2cd	-0.09515915
47	0xbd9028c2	-0.07039024
48	0xbd8bd163	-0.06827047
49	0x3f1592df	0.5842723
50	0xbda9d8d0	-0.08293307
51	0xbe420353	-0.1894658
52	0xbc471538	-0.012151055
53	0x3f41ec42	0.75751126
54	0xbe0710fb	-0.13190071
55	0xbfa16b6f	-1.2610911
56	0xbe0c2cec	-0.13689011
57	0xbddad874	-0.106858164
58	0xbe3f2353	-0.18665819
59	0xbe2b1d6c	-0.16710442
60	0xbe46f279	-0.19428433
61	0xbe291c32	-0.16514662
62	0xbe128d9c	-0.14311832
63	0xbda31ea6	-0.0796483
64	0xbd8e2a38	-0.06941646
65	0xbd8a6de1	-0.06759239
66	0xbe7a12ae	-0.24421188
67	0xbe6d1d25	-0.23155649
68	0xbe646963	-0.22305827
69	0xbe8da49c	-0.2766465
70	0x3f087943	0.5331003
71	0xbe2551e8	-0.16144526
72	0xbdfa021f	-0.12207436
73	0x3d617748	0.055045396
74	0x3cfc2354	0.030778565
75	0x3e97262f	0.2952132
76	0x3e044eba	0.12920657
77	0xbde8b12a	-0.11361916
78	0xbc45e9ca	-0.012079665
79	0xbcda5683	-0.02665258
80	0xbe7af80a	-0.24508682
81	0xbe167ca0	-0.14695978
82	0x3d4bb1d5	0.04973014
83	0xbe4936e5	-0.19649847
84	0x3f827474	1.0191789
85	0xbe361754	-0.17782336
86	0x3e7c9b98	0.2466873
87	0xbe0b4cd1	-0.13603522
88	0xbdcac121	-0.09900118
89	0xbe36bf4a	-0.17846408
90	0xbdd10976	-0.10206883
91	0x3ed37114	0.4129721
92	0xbd858240	-0.06518984
93	0xbe0a7fae	-0.13525268
94	0xbe60569f	-0.21908043
95	0x3d06924e	0.03285437
96	0x3bf4b36c	0.007467678
97	0xbe166246	-0.14685926
98	0x3f2f37b7	0.6844439
99	0x3e028980	0.12747765
100	0xbe44aa9b	-0.19205706
101	0xbc972e58	-0.018454716
102	0xbcc1f73a	-0.023677457
103	0x3c187f60	0.009307712
104	0xbe04464a	-0.12917438
105	0xbeab031e	-0.33400816
106	0xbb74f050	-0.0037374683
107	0xbe862618	-0.26200938
108	0xbd1e97a3	-0.03871883
109	0xbe6628a5	-0.22476442
110	0xbb4e27aa	-0.0031456747
111	0xbebf67a6	-0.37383765
112	0xbdb6c3d8	-0.08924073
113	0xbd9fafd3	-0.07797208
114	0x3f01ce3c	0.50705314
115	0xbe2239c8	-0.15842354
116	0xbe1b405a	-0.15161267
117	0xbd8f8e81	-0.07009602
118	0xbe1e9255	-0.15485509
119	0x3ee673e9	0.45010307
120	0xbe19bbe3	-0.1501308
121	0xbe1aa0e3	-0.15100436
122	0x3ebd31af	0.36951968
123	0xbdc6a1e1	-0.09698845
124	0xbd876d4e	-0.06612645
125	0x3c9ac259	0.0188915
126	0xbf0b632a	-0.5444819
127	0x3d07e67c	0.03317879
