examples/benchmarks/cpu/ref/reference.onnx (onnx, 15663 bytes, 3 tensors)

sequential_12/conv2d_15/BiasAdd/ReadVariableOp f4 [10]
0.0 0.0 0.0 0.0 0.0 0.0 0.0 0.0
0.0 0.0
00000000: 0000 0000 0000 0000 0000 0000 0000 0000
00000010: 0000 0000 0000 0000 0000 0000 0000 0000
00000020: 0000 0000 0000 0000

const_fold_opt__19 f4 [10, 1, 3, 3]
0.2111974 -0.122184776 -0.019957274 -0.15072238 -0.062196493 -0.0377651 -0.09786825 0.043118864
0.13911927 0.053315222 0.15151551 0.18864706 0.11946374 -0.1148058 -0.22215658 -0.04265301
-0.054435536 0.12391567 -0.019006953 -0.12015271 -0.15146099 0.17218998 -0.034253463 -0.0096623
-0.1096192 -0.2048908 -0.19682464 0.008681625 -0.11607884 -0.22378448 0.15127048 0.18154672
-0.11587182 -0.03158045 -0.20053825 -0.24030325 0.18702212 0.13243368 0.02727133 0.072660446
0.07536802 -0.13447002 -0.077953294 -0.10887237 0.0797227 -0.14911655 -0.0111127645 -0.19762465
0.20133337 -0.23330028 -0.17752585 -0.17619912 0.20292059 0.20083454 0.17395869 0.16928977
0.021352082 0.080255 -0.13354424 -0.1407159 -0.07218297 -0.16329253 0.07375476 0.02119109
-0.101485774 -0.1498999 0.026697248 -0.13510433 -0.05662109 -0.23505478 -0.10736786 -0.07039982
0.08208215 -0.18759862 -0.19196361 0.12000978 -0.14219534 0.029150426 -0.16384771 -0.17401898
-0.1849088 -0.0936238 0.006661147 -0.04522571 -0.1053419 0.0005566031 -0.20118189 0.053123176
-0.0060797036 -0.112084374
00000000: 2244 583e 033c fabd 707d a3bc f856 1abe
00000010: c0c1 7ebd 94af 1abd 266f c8bd 689d 303d
00000020: 4875 0e3e 1061 5a3d e226 1b3e b22c 413e
00000030: 68a9 f43d 4e1f ebbd 047d 63be ecb4 2ebd
00000040: ccf7 5ebd 80c7 fd3d 78b4 9bbc a012 f6bd
00000050: 9718 1bbe 9252 303e 5c4d 0cbd a04e 1ebc
00000060: 0880 e0bd e5ce 51be 668c 49be 603d 0e3c
00000070: beba edbd c227 65be a6e6 1a3e 62e7 393e
00000080: 344e edbd 805a 01bd e659 4dbe 0e12 76be
00000090: ba82 3f3e b29c 073e 2068 df3c 00cf 943d
000000a0: 8c5a 9a3d 82b2 09be faa5 9fbd 7af8 debd
000000b0: a845 a33d 02b2 18be 5012 36bc 1e5e 4abe
000000c0: 562a 4e3e 45e6 6ebe 56c9 35be 8b6d 34be
000000d0: 6aca 4f3e 92a7 4d3e 3a22 323e 4c5a 2d3e
000000e0: 90ea ae3c bc5c a43d d2bf 08be d417 10be
000000f0: aad4 93bd 2836 27be bc0c 973d f098 ad3c
00000100: c6d7 cfbd 5c7f 19be 30b4 da3c ca58 0abe
00000110: 84eb 67bd 33b2 70be aee3 dbbd c82d 90bd
00000120: b01a a83d da19 40be 1c92 44be b0c7 f53d
00000130: a89b 11be e0cc ee3c b2c7 27be 0832 32be
00000140: bc58 3dbe d6bd bfbd c045 da3b 983e 39bd
00000150: 7ebd d7bd 00e9 113a a002 4ebe b097 593d
00000160: 4038 c7bb 7e8c e5bd

const_fold_opt__17 f4 [640, 5]
-0.07787273 -0.021228664 0.052233003 -0.08305195 -0.018760212 0.030633025 0.008890443 -0.0564971
0.047377117 -0.018586159 0.022097401 0.063581415 -0.034661364 0.06616754 0.0073141754 0.043454476
0.04782883 0.0558941 0.081784315 -0.014481112 0.04195448 -0.032756537 0.009306498 -0.083526015
0.015055858 -0.054540053 0.05827225 0.021430656 0.081574135 0.03383053 0.037161343 -0.016612276
0.07848767 -0.014156766 -0.06397144 -0.09326558 0.059421025 -0.077640206 -0.021654353 0.03092403
-0.0004876107 0.07212103 0.07364217 -0.012971371 0.09321951 -0.047883127 -0.0472893 -0.07290687
0.024036579 0.07831598 0.04884947 -0.0075737685 0.051624335 -0.015904464 -0.011737309 0.026964732
0.03760425 0.066914864 0.062476598 -0.08573842 -0.07287007 -0.016497098 0.01374881 -0.08013931
0.03993974 -0.012934074 0.015793167 -0.07359242 -0.043150615 0.028229974 -0.046024106 -0.01223097
-0.047830235 0.044233225 -0.08285699 0.02630657 -0.07741092 0.024278052 0.024035223 -0.0060266107
-0.0310575 -0.021738902 -0.050556563 -0.07434792 -0.035124484 -0.04367189 -0.027065426 -0.0070624053
-0.028759755 0.0016101897 -0.072590105 -0.046873778 -0.050428435 0.036588334 0.023920313 0.06595313
-0.0713497 -0.013235696 -0.07693699 0.03198477 -0.030897059 0.045784123 -0.028934129 0.043324314
0.048741393 -0.047773555 -0.042975944 0.08024233 -0.03366057 -0.041873947 -0.031891808 -0.09444838
-0.066618405 -0.027686618 0.02718813 -0.07690031 0.07354238 0.02916544 0.09373946 -0.021068573
-0.041826714 0.05143427 0.0874751 0.073603295 0.020987928 -0.053184766 -0.0056321546 0.09271368
-0.06598931 -0.03798618 0.036088653 -0.018178895 0.007870682 0.00076624006 0.02790714 -0.06326926
-0.05263507 -0.048706718 -0.04023168 -0.07859898 -0.07437241 -0.05068221 -0.0075780004 -0.042936735
-0.09099628 0.0046539158 0.07901984 0.009139508 -0.09148194 0.08406178 -0.00021903217 0.0041723773
0.06328008 -0.027042344 -0.086751975 -0.046302784 0.092504345 0.0494648 0.019161247 -0.036902953
0.029827513 -0.046498336 -0.03193219 0.009241283 -0.052483555 -0.052211337 -0.056787666 0.055444263
0.07631939 0.06486563 0.00080696493 -0.085687764 0.027720034 -0.06288062 0.057305582 0.066698544
-0.02693601 -0.091964625 0.0647833 -0.01901874 0.041569553 -0.00065653026 -0.031108476 -0.0222058
0.03644056 -0.04338944 0.0027467012 -0.017019704 -0.041565582 0.08353365 -0.07499611 -0.04305422
0.07193833 -0.011104763 0.074741326 0.05546195 -0.038770754 -0.061416242 0.051293723 0.02189684
0.06312037 -0.060101658 -0.039827105 0.008685648 0.004558578 -0.0028793141 -0.0027225763 -0.059066806
0.01957564 -0.022455506 -0.025354289 -0.091843605 -0.052267954 0.040258743 -0.079168156 -0.087902375
-0.09172596 0.038775466 -0.013294794 -0.063130185 0.07691424 0.053454734 -0.012154698 -0.052753907
0.029161505 -0.030406274 -0.0399519 0.042629845 0.031424843 -0.07523866 -0.0052545965 0.086390726
0.03939634 -0.083995 -0.0076729953 -0.04697029 0.061881505 -0.08663919 0.015215509 0.037986435
-0.06265552 0.05357132 0.08501876 0.07304139 -0.06312487 0.09233902 0.09017744 0.05037453
-0.05767965 -0.075773135 0.05249185 0.06561849 -0.08895514 0.036683165 0.04708878 -0.08082411
00000000: bd7b 9fbd bce7 adbc 46f2 553d 2417 aabd
00000010: 04af 99bc 1cf2 fa3c 38a9 113c 8169 67bd
00000020: 820e 423d 0042 98bc 9c05 b53c f936 823d
00000030: 13f9 0dbd d982 873d c0ab ef3b 52fd 313d
00000040: 2ae8 433d 36f1 643d 897e a73d 3042 6dbc
00000050: 76d8 2b3d b82b 06bd 487a 183c b00f abbd
00000060: d8ac 763c 6465 5fbd e2ae 6e3d 588f af3c
00000070: 5710 a73d e291 0a3d 7e36 183d 7816 88bc
00000080: 25be a03d c8f1 67bc 7503 83bd 0602 bfbd
00000090: 7663 733d d401 9fbd 7864 b1bc 6454 fd3c
000000a0: 00a6 ffb9 31b4 933d b5d1 963d e085 54bc
000000b0: dfe9 be3d 1921 44bd 6db2 41bd 3250 95bd
000000c0: 5ce8 c43c 2164 a03d 6216 483d 602d f8bb
000000d0: 0a74 533d 144a 82bc d84d 40bc 24e5 dc3c
000000e0: ea06 1a3d a90a 893d 76e7 7f3d a097 afbd
000000f0: e73c 95bd ec24 87bc b042 613c 1420 a4bd
00000100: da97 233d 70e9 53bc ac60 813c 9fb7 96bd
00000110: b3be 30bd 8c42 e73c c683 3cbd 6864 48bc
00000120: a3e9 43bd e62d 353d edb0 a9bd e080 d73c
00000130: 9e89 9ebd c4e2 c63c 84e5 c43c e07a c5bb
00000140: 4c6c febc c815 b2bc 6614 4fbd b943 98bd
00000150: b1de 0fbd 4ce1 32bd 50b8 ddbc c06b e7bb
00000160: 9499 ebbc 000d d33a 1faa 94bd b8fe 3fbd
00000170: 0c8e 4ebd a6dd 153d 88f4 c33c 6f12 873d
00000180: cb1f 92bd 88da 58bc 2491 9dbd 7602 033d
00000190: d41b fdbc 2288 3b3d 4407 edbc d674 313d
000001a0: 0ea5 473d 34ae 43bd 8b07 30bd 1756 a43d
000001b0: aadf 09bd 0484 2bbd fca0 02bd 276e c1bd
000001c0: 3b6f 88bd 0ccf e2bc a4b9 de3c e97d 9dbd
000001d0: 639d 963d 5cec ee3c 79fa bf3d 0098 acbc
000001e0: 7d52 2bbd beac 523d 2526 b33d 53bd 963d
000001f0: e0ee ab3c 45d8 59bd f08d b8bb abe0 bd3d
00000200: 6725 87bd 6697 1bbd b2d1 133d e8eb 94bc
00000210: 08f4 003c 80dd 483a 849d e43c 5093 81bd
00000220: df97 57bd b280 47bd f9c9 24bd 81f8 a0bd
00000230: 9050 98bd 2698 4fbd e050 f8bb 6ede 2fbd
00000240: 425c babd e07f 983b 27d5 a13d e0bd 153c
00000250: e25a bbbd 9528 ac3d 00ac 65b9 70b8 883b
00000260: fd98 813d e887 ddbc 05ab b1bd fda7 3dbd
00000270: eb72 bd3d 9a9b 4a3d 0cf8 9c3c 8d27 17bd
00000280: d458 f43c 0a75 3ebd 54cb 02bd c068 173c
00000290: fff8 56bd 8edb 55bd 2f9a 68bd 8619 633d
000002a0: 574d 9c3d 45d8 843d 808a 533a 117d afbd
000002b0: 2015 e33c 8ec7 80bd 42b9 6a3d 3f99 883d
000002c0: e8a8 dcbc f357 bcbd 1bad 843d 30cd 9bbc
000002d0: d644 2a3d 001b 2cba 34d7 febc f0e8 b5bc
000002e0: b242 153d 20b9 31bd 0002 343b e86c 8bbc
000002f0: ac40 2abd b113 ab3d 8f97 99bd 9f59 30bd
00000300: 6754 933d c0f0 35bc fb11 993d 122c 633d
00000310: 15ce 1ebd 998f 7bbd 5e19 523d 0061 b33c
00000320: 4145 813d 282d 76bd bf21 23bd 404e 0e3c
00000330: 2060 953b e0b2 3cbb 406d 32bb 09f0 71bd
00000340: 185d a03c 9cf4 b7bc ccb3 cfbc 8018 bcbd
00000350: ec16 56bd 5ae6 243d ea22 a2bd 2906 b4bd
00000360: d2da bbbd 06d3 1e3d 68d2 59bc 664a 81bd
00000370: 3785 9d3d 5af3 5a3d 8024 47bc 7b14 58bd
00000380: 1ce4 ee3c 9416 f9bc 9aa4 23bd a29c 2e3d
00000390: 56b7 003d ba16 9abd c02e acbb 9fed b03d
000003a0: 0e5e 213d 9205 acbd c06d fbbb eb63 40bd
000003b0: 7677 7d3d e36f b1bd 784a 793c aa97 1b3d
000003c0: 8a51 80bd 9a6d 5b3d 511e ae3d b996 953d
000003d0: 9d47 81bd 3d1c bd3d f3ae b83d 8655 4e3d
000003e0: 7f41 6cbd f22e 9bbd b201 573d fd62 863d
000003f0: 1d2e b6bd 1641 163d 2ae0 403d 1c87 a5bd
