examples/benchmarks/cpu/kws/kws_float32_9.onnx (onnx, 104694 bytes, 20 tensors)

functional_1/dense/BiasAdd/ReadVariableOp/resource f4 [12]
0	0xbd55a1f2	-0.052156396
1	0xbc310009	-0.010803231
2	0xbd3498e3	-0.044091117
3	0xbd7394ed	-0.0594682
4	0xbba5dc36	-0.0050616516
5	0xbd7d2397	-0.06180152
6	0xbe0b3979	-0.13596143
7	0x3cb0a207	0.021561636
8	0xbd2e889e	-0.042610757
9	0xbdd01026	-0.1015933
10	0xbcecca6d	-0.028905118
11	0x3debb011	0.115081914

functional_1/activation_8/Relu;functional_1/batch_normalization_8/FusedBatchNormV3;functional_1/conv2d_4/BiasAdd/ReadVariableOp/resource;functional_1/conv2d_4/BiasAdd;functional_1/conv2d_4/Conv2D f4 [64]
0	0xbf3f8d33	-0.7482483
1	0x3f06976a	0.5257479
2	0xbf6b54d2	-0.919263
3	0x3efca999	0.49348143
4	0x40231055	2.5478718
5	0x3fd84559	1.6896163
6	0xbe458f28	-0.19292891
7	0x3f0e53be	0.5559653
8	0x3eb1cd77	0.3472707
9	0x40303de7	2.7537782
10	0xc0046ea0	-2.069252
11	0x3f871981	1.0554658
12	0x3f956278	1.1670675
13	0xbe254170	-0.16138244
14	0x3e10996b	0.14121024
15	0x3f976bea	1.1829808
16	0x3ef9e52e	0.48807663
17	0xbe0dd931	-0.13852383
18	0x3fa94e90	1.32271
19	0x3ed46eae	0.41490692
20	0x3f4b83f8	0.79498243
21	0x3fc886d1	1.5666143
22	0xbe741906	-0.2383767
23	0x3faf0748	1.3674097
24	0xbf089a1b	-0.53360146
25	0xbeb67c52	-0.35641724
26	0xbf11fc25	-0.5702537
27	0xbe59a92a	-0.21255937
28	0xbe9e7730	-0.30950308
29	0x4017beaa	2.3710122
30	0x3fd6b2d8	1.6773329
31	0xbefaa1ae	-0.48951477
32	0x3e922c8c	0.28549612
33	0x3e0b2616	0.13588747
34	0x3f55993d	0.8343695
35	0x3fd4e782	1.663315
36	0x3fbbe2c6	1.4678581
37	0x3e6b9648	0.23006546
38	0x3fcc2197	1.5947751
39	0x3eace7f5	0.3377072
40	0x3f7cdaec	0.9877155
41	0x3f28d70d	0.6595314
42	0xbd5d9a23	-0.054102074
43	0x3eeb7d80	0.45994186
44	0x3f60f00f	0.878663
45	0x3fd5b58c	1.6696029
46	0x3f87d13b	1.0610727
47	0xbf210d53	-0.62910956
48	0x3e6227b2	0.22085455
49	0xbe670dd9	-0.22563876
50	0x3f4e5773	0.80602187
51	0x3e356d02	0.17717364
52	0x3f29f058	0.6638236
53	0x3f74cdac	0.9562633
54	0x3f9e523e	1.2368848
55	0x3e0ef1c0	0.13959408
56	0x3f8224b7	1.0167454
57	0x3fb4fd51	1.4139806
58	0x3f328a95	0.6974271
59	0x3f075a0b	0.5287177
60	0x3eb4020d	0.35157815
61	0x40000787	2.0004594
62	0xbe5c70bf	-0.21527384
63	0x40178ef3	2.3681

functional_1/activation_7/Relu;functional_1/batch_normalization_7/FusedBatchNormV3;functional_1/depthwise_conv2d_3/depthwise;functional_1/depthwise_conv2d_3/BiasAdd;functional_1/conv2d_4/Conv2D;functional_1/depthwise_conv2d_3/BiasAdd/ReadVariableOp/resource f4 [64]
0	0xbf076740	-0.5289192
1	0xbf39f973	-0.72646254
2	0xbf2776bf	-0.6541557
3	0x3f40fbc5	0.7538417
4	0x3f80d93b	1.0066293
5	0x3f0fdc43	0.5619547
6	0xbf2fad64	-0.6862395
7	0x3fabd6a4	1.3424878
8	0xbeff0dbd	-0.4981517
9	0x3fa883cc	1.3165221
10	0xbf5d316f	-0.86403555
11	0x3f7cdf3e	0.9877814
12	0x3f6b1b03	0.9183809
13	0x3fb41142	1.4067767
14	0xbd998532	-0.07496108
15	0x3faee936	1.366492
16	0x3f944b05	1.1585394
17	0x3f9c373f	1.220436
18	0x3f6b6c37	0.91962
19	0x3ced8409	0.028993623
20	0x3f5e5a4d	0.8685654
21	0x3f57ae4a	0.8425032
22	0xbf532252	-0.82474244
23	0x3f277d47	0.65425533
24	0x3f34c844	0.7061808
25	0x3f3c6304	0.73588586
26	0x3fbc357a	1.470382
27	0x3f6d96c5	0.9280818
28	0xbe58f984	-0.21188933
29	0x3ee91135	0.4552094
30	0xbf332b08	-0.69987535
31	0x3f3b7861	0.7323056
32	0x3fb7687e	1.4328763
33	0x3f5fab3d	0.87370664
34	0xbf39c844	-0.72571206
35	0xbe5664ea	-0.20936933
36	0xbf3f52ff	-0.74736017
37	0xbf19005f	-0.5976619
38	0xbf89b071	-1.0756971
39	0xbf97e2e7	-1.186612
40	0x3fa1a1f0	1.2627544
41	0x3ce49acc	0.027905844
42	0x3f52fc0d	0.8241585
43	0x3faad072	1.3344862
44	0x3f869cd4	1.051661
45	0xbf18ddb4	-0.5971329
46	0xbf1c59cb	-0.61074513
47	0x3f471858	0.7777152
48	0xbf33459a	-0.7002808
49	0xbf25a952	-0.6471149
50	0xbefff6ca	-0.49992973
51	0x3fcb5ad7	1.5887097
52	0xbf120174	-0.5703347
53	0x3eb6bb13	0.356896
54	0xbf7a299c	-0.9771974
55	0xbf10c76b	-0.5655429
56	0xbf9cf005	-1.2260748
57	0x3f916b83	1.1360935
58	0x3fc8b8f2	1.5681441
59	0x3f94ecfe	1.1634824
60	0x3fa6994d	1.3015534
61	0xbed6d41e	-0.41958708
62	0xbf025fa2	-0.50927174
63	0xbf3da0ca	-0.7407347

functional_1/activation_6/Relu;functional_1/batch_normalization_6/FusedBatchNormV3;functional_1/conv2d_3/BiasAdd/ReadVariableOp/resource;functional_1/conv2d_3/BiasAdd;functional_1/conv2d_4/Conv2D;functional_1/conv2d_3/Conv2D f4 [64]
0	0x3f10fa37	0.566318
1	0xbe8d3276	-0.2757756
2	0xbe604304	-0.21900564
3	0x3f0d2d85	0.5514758
4	0x3eaf0b48	0.34188294
5	0x3e4ebe26	0.20189723
6	0x3e920235	0.2851731
7	0x3e78dedd	0.24303766
8	0xbd7b1d95	-0.06130751
9	0x3f6f7809	0.93542534
10	0x3f4c73c7	0.7986416
11	0xbe7a88fb	-0.24466316
12	0xbe8fc5d6	-0.28080624
13	0x3e48764c	0.19576377
14	0xbeb43519	-0.3519676
15	0x3eb93076	0.36169785
16	0x3d8802bc	0.066411465
17	0x3f456126	0.7710136
18	0x3e424f04	0.18975455
19	0xbd301de0	-0.04299724
20	0x3eb253af	0.3482947
21	0x3eca01ff	0.39454648
22	0x3eca952e	0.3956694
23	0xbf7c6d33	-0.98604125
24	0xbec1ef7b	-0.37878022
25	0xbf453f8e	-0.770501
26	0x3f7dc33d	0.99126035
27	0x3eb96dcf	0.3621659
28	0x3efa888e	0.48932308
29	0xbea21c99	-0.31662443
30	0x3e16b873	0.147188
31	0xbf06b24b	-0.52615803
32	0x3f294bf0	0.66131496
33	0xbdb94b9f	-0.09047627
34	0x3e26c9b1	0.16287877
35	0x3e8ae9cd	0.271315
36	0xbea43bb0	-0.32076788
37	0xbf019df9	-0.5063167
38	0xbf0a4ebc	-0.5402639
39	0x3f8a5089	1.0805827
40	0xbea9e196	-0.3317992
41	0x3f0a1142	0.53932583
42	0xbe113ca2	-0.14183286
43	0x3ed8feaa	0.42381793
44	0x3f25235e	0.6450709
45	0xbf017fe8	-0.50585794
46	0x3d69239a	0.056918718
47	0x3e7b39a6	0.2453371
48	0x3ef7b520	0.48380375
49	0x3f424718	0.7588973
50	0x3e2590cc	0.16168517
51	0x3ef75c6c	0.483127
52	0xbe38ddb2	-0.1805332
53	0xbf035d72	-0.5131446
54	0x3deb0290	0.11475098
55	0xbddb5b69	-0.107107945
56	0x3ec8de08	0.39231896
57	0x3f488229	0.7832361
58	0x3e96fbb0	0.29488897
59	0xbf7f1e96	-0.99656045
60	0x3f553dfe	0.8329772
61	0x3ec892e6	0.39174575
62	0x3cab70d6	0.020927828
63	0x3e8b3589	0.27189282

functional_1/activation_5/Relu;functional_1/batch_normalization_5/FusedBatchNormV3;functional_1/depthwise_conv2d_2/depthwise;functional_1/depthwise_conv2d_2/BiasAdd;functional_1/conv2d_4/Conv2D;functional_1/depthwise_conv2d_2/BiasAdd/ReadVariableOp/resource f4 [64]
0	0xbf05fa05	-0.52334625
1	0xbf4d08b0	-0.8009138
2	0xbe689e1c	-0.22716564
3	0xbe81813b	-0.25293908
4	0x3f01cee4	0.50706315
5	0xbd41a0b6	-0.047272407
6	0x3f72c97e	0.948387
7	0x3f951f13	1.1650108
8	0xbf5bdbd3	-0.858823
9	0xbf0bbd47	-0.5458569
10	0xbe999c32	-0.3000198
11	0x3f812518	1.0089445
12	0xbf69c25e	-0.91312206
13	0xbe1cf6db	-0.15328543
14	0x3f798676	0.97470796
15	0x3fa312fa	1.2740166
16	0x3f1e25d4	0.6177647
17	0x3fa912a9	1.320882
18	0x3fcfa08e	1.6220872
19	0x3edcd128	0.43128324
20	0x3f974978	1.1819296
21	0xbf11beb1	-0.56931597
22	0xbf299dc9	-0.66256386
23	0xbe04fc54	-0.1298688
24	0xbf375a3c	-0.7162206
25	0x3f90bac6	1.1306999
26	0x3f23fa0d	0.6405342
27	0xbf537b3d	-0.8260992
28	0xbf08317e	-0.5320052
29	0xbf802ccc	-1.0013671
30	0x3f6b9268	0.92020273
31	0xbf516704	-0.81797814
32	0xbf1f68d1	-0.6226931
33	0x3f8b6795	1.0890986
34	0xbf6aaa09	-0.91665703
35	0x3f988613	1.1915916
36	0xbd6f13a8	-0.058368355
37	0xbf1ab602	-0.6043397
38	0xbf03f00d	-0.51538163
39	0xbf0ee162	-0.55812657
40	0xbefb530e	-0.49086803
41	0x3f89fcdf	1.0780295
42	0xbf5b20ef	-0.8559713
43	0xbf322030	-0.69580364
44	0xbe4e9502	-0.2017403
45	0xbeceec4c	-0.40414655
46	0xbf4a0c98	-0.78925467
47	0xbe366c70	-0.17814803
48	0x3f2c79fa	0.6737362
49	0xbef333bb	-0.47500405
50	0xbf393683	-0.72348803
51	0xbf86aefd	-1.0522152
52	0xbf573855	-0.8407033
53	0xbf2550ff	-0.64576715
54	0xbea4520a	-0.3209384
55	0xbf1452d8	-0.5793891
56	0x3f4c1090	0.7971277
57	0x3f9056d7	1.1276501
58	0xbe8858d4	-0.2663027
59	0x3ec7fc62	0.3905974
60	0xbed95707	-0.4244921
61	0x3f28a183	0.6587145
62	0x3faeb12e	1.3647821
63	0xbf504180	-0.81349945

functional_1/activation_4/Relu;functional_1/batch_normalization_4/FusedBatchNormV3;functional_1/conv2d_2/BiasAdd/ReadVariableOp/resource;functional_1/conv2d_2/BiasAdd;functional_1/conv2d_4/Conv2D;functional_1/conv2d_2/Conv2D f4 [64]
0	0x3f0fb448	0.5613446
1	0xbf9c9806	-1.2233894
2	0xbf0627c1	-0.5240441
3	0xbf7d4c19	-0.9894424
4	0x3f12935d	0.5725611
5	0x3f8c8077	1.0976704
6	0xbf854b29	-1.0413562
7	0x3eb61bbc	0.35568035
8	0x3ea5a85f	0.3235502
9	0x3e8c1b06	0.27364367
10	0x3ef9d5c4	0.48795903
11	0x3fa18626	1.2619064
12	0x3f2d6f52	0.67747986
13	0xbdbcda94	-0.09221378
14	0x3fa34865	1.2756468
15	0x3f23b1d6	0.6394323
16	0xbe54dc11	-0.20787074
17	0x3ef724bc	0.48270214
18	0x3f959c42	1.1688311
19	0x3df70869	0.12062151
20	0xbeb4547c	-0.35220706
21	0x3e21a460	0.1578536
22	0xbee3aa8b	-0.4446605
23	0xbe828d49	-0.25498417
24	0xbfad64a9	-1.3546344
25	0xbde7b8dc	-0.11314556
26	0xbf42cac2	-0.76090634
27	0x3f96a3cd	1.1768738
28	0xbedc14a8	-0.4298451
29	0x3c881954	0.01661364
30	0x3dc15554	0.09440103
31	0xbe7188f0	-0.23587394
32	0x3f0c47bb	0.5479695
33	0x3e5baf3e	0.21453568
34	0x3e10d2dd	0.14142938
35	0x3ebd5754	0.3698069
36	0x3f3672f3	0.7126915
37	0xbea8db58	-0.32979846
38	0x3f15483e	0.5831336
39	0xbe0c22d6	-0.13685164
40	0x3d525654	0.05135186
41	0x3e9108c6	0.28327006
42	0x3dac5302	0.0841427
43	0xbf057919	-0.52137905
44	0x3ddcfb01	0.10790063
45	0xbe5acb6c	-0.21366662
46	0xbf3b445a	-0.7315117
47	0x3ec79d85	0.38987365
48	0x3f147f99	0.580072
49	0x3d5d250f	0.05399042
50	0xbd501cea	-0.050808825
51	0x3ef2be17	0.47410652
52	0xbedca24c	-0.43092573
53	0x3f624f67	0.8840241
54	0x3ea4f26c	0.32216203
55	0xbf31af65	-0.69408256
56	0xbf24b737	-0.64342064
57	0xbebc1635	-0.36735693
58	0xbf1ef0bb	-0.62086076
59	0xbe4e2424	-0.20130974
60	0x3c222db0	0.009898588
61	0xbe2e7260	-0.17035818
62	0x3efd8742	0.49517256
63	0xbe903469	-0.28164986

functional_1/activation_3/Relu;functional_1/batch_normalization_3/FusedBatchNormV3;functional_1/depthwise_conv2d_1/depthwise;functional_1/depthwise_conv2d_1/BiasAdd;functional_1/conv2d_4/Conv2D;functional_1/depthwise_conv2d_1/BiasAdd/ReadVariableOp/resource f4 [64]
0	0xbf4be443	-0.79645175
1	0x3f798c00	0.9747925
2	0x3e2b86f3	0.16750698
3	0xbf4812e2	-0.7815381
4	0xbe89b174	-0.26893198
5	0x3fa723d0	1.3057804
6	0xbe8451b8	-0.25843596
7	0x3b8b72d0	0.00425563
8	0xbf49780f	-0.7869882
9	0x3f5a2822	0.8521749
10	0xbf347420	-0.7048969
11	0xbec97615	-0.39347902
12	0x3e85501b	0.26037678
13	0xbf8cb701	-1.0993348
14	0xbf2b0516	-0.66804636
15	0x3e225bea	0.15855375
16	0xbec78d80	-0.38975143
17	0xbfa50946	-1.2893455
18	0xbf2edd83	-0.6830675
19	0x3f86b19a	1.052295
20	0xbe3e324c	-0.18573874
21	0x3fc56c75	1.5423723
22	0xbf0c88a6	-0.5489601
23	0x3edffb04	0.43746197
24	0xbf630109	-0.88673455
25	0xbf188b69	-0.59587723
26	0x3ee44382	0.44582754
27	0xbec7c94e	-0.3902077
28	0xbf13c5fa	-0.57723963
29	0xbf41392e	-0.75477874
30	0x3f4587e8	0.771605
31	0xbc1f4f54	-0.009723503
32	0xbf8f9b27	-1.1219224
33	0x3df30ccf	0.118676774
34	0x3ee8640d	0.45388833
35	0xbf23ba46	-0.63956106
36	0x3f6faace	0.9362
37	0x3c20a644	0.009805266
38	0xbf05b86e	-0.5223454
39	0xbecb03ff	-0.39651486
40	0xbee6c0a8	-0.4506886
41	0xbde171ae	-0.11008011
42	0x3f8d787f	1.1052397
43	0xbeb05ca1	-0.3444567
44	0x3f9c770b	1.2223829
45	0xbf04d9c7	-0.518948
46	0xbe5e42c2	-0.21705154
47	0xbe905511	-0.281899
48	0xbec36482	-0.3816262
49	0xbecff646	-0.4061758
50	0x3f92ece5	1.1478544
51	0xbe9b0efe	-0.30284876
52	0x3f94d514	1.1627526
53	0x3f937bfa	1.152221
54	0x3f4fac33	0.8112213
55	0xbe5adfff	-0.2137451
56	0xbf3c3393	-0.73516196
57	0x3eae22de	0.34010977
58	0x3e1a3457	0.15059029
59	0x3fad6714	1.3547082
60	0xbf0ad863	-0.5423643
61	0x3f44a9b7	0.76821464
62	0xbe76cc82	-0.24101451
63	0x3f8b3ef4	1.0878587

functional_1/activation_2/Relu;functional_1/batch_normalization_2/FusedBatchNormV3;functional_1/conv2d_1/BiasAdd/ReadVariableOp/resource;functional_1/conv2d_1/BiasAdd;functional_1/conv2d_4/Conv2D;functional_1/conv2d_1/Conv2D f4 [64]
0	0x3f10914c	0.56471705
1	0xbf26cb5c	-0.6515405
2	0x3e8253d9	0.25454596
3	0x3eb6f580	0.35734177
4	0x3f555310	0.8332987
5	0x3f0d6ed6	0.5524725
6	0xbee17a68	-0.440387
7	0x3f59447a	0.8487011
8	0xbd34e9dc	-0.04416834
9	0x3edd56f2	0.43230397
10	0x3ed393a7	0.41323587
11	0x3ed86862	0.42267138
12	0x3f76c642	0.9639627
13	0x3dbc7594	0.09202114
14	0x3f7f6d07	0.9977574
15	0x3ed9f7e5	0.4257194
16	0x3ea5b276	0.32362717
17	0x3d24afb8	0.04020664
18	0x3fb0e4db	1.3819841
19	0x3e88e9d3	0.26740894
20	0x3ef95bc3	0.4870282
21	0x3f534fb1	0.82543474
22	0x3f53c764	0.8272612
23	0xbef96bf5	-0.48715177
24	0x3f001ba4	0.50042176
25	0x3f083639	0.5320774
26	0x3f3412a8	0.7034097
27	0xbedeea58	-0.43538165
28	0x3df5f11f	0.12008881
29	0xbd09c384	-0.033633724
30	0x3ecba3c6	0.39773387
31	0xbd4dcdda	-0.050245143
32	0x3eb87955	0.3603007
33	0x3c23d366	0.009999132
34	0x3e4064a8	0.18788397
35	0x3f2f4f2f	0.684802
36	0x3f3a9166	0.7287811
37	0x3ebce116	0.36890477
38	0x3ec8ffa2	0.39257532
39	0xbf4874c2	-0.7830316
40	0x3f080a68	0.5314088
41	0xbedbc363	-0.42922506
42	0x3f3ad6ca	0.7298399
43	0x3e102b80	0.14079094
44	0x3eb551a4	0.3541385
45	0x3ef863cf	0.48513648
46	0x3ea2de18	0.3181007
47	0xbe8291d5	-0.25501886
48	0x3eb82d11	0.35971883
49	0x3ea883cd	0.32913056
50	0x3f30acb6	0.69013536
51	0x3f6a4bc5	0.91521865
52	0x3ed44138	0.41456008
53	0xbe223268	-0.15839541
54	0x3e44f256	0.19233069
55	0x3dbcfdfd	0.09228132
56	0x3e43dbc6	0.19126806
57	0x3f2f8564	0.6856291
58	0x3f03cf57	0.5148825
59	0x3e86d948	0.26337647
60	0x3e27f2f2	0.1640127
61	0xbee021bd	-0.4377574
62	0xbcf33742	-0.029689435
63	0xbc9cf4da	-0.019159723

functional_1/activation_1/Relu;functional_1/batch_normalization_1/FusedBatchNormV3;functional_1/depthwise_conv2d/depthwise;functional_1/depthwise_conv2d/BiasAdd;functional_1/conv2d_4/Conv2D;functional_1/depthwise_conv2d/BiasAdd/ReadVariableOp/resource f4 [64]
0	0x3ea18f45	0.31554618
1	0x3f3411a5	0.70339423
2	0x3eeffbcc	0.46871793
3	0xbd1edf13	-0.03878696
4	0x3ea33872	0.31879002
5	0xbe48b10c	-0.19598788
6	0x3e5de3fe	0.21669003
7	0x3f34b38f	0.70586485
8	0xbc1f73b0	-0.009732172
9	0x3b466a60	0.0030275807
10	0x3d8eb254	0.06967607
11	0x3d2d5867	0.042320635
12	0x3d5cf948	0.05394867
13	0x3e2a5973	0.16635685
14	0x3e153475	0.14570792
15	0x3dbf46f5	0.09339706
16	0xbdd0bda5	-0.10192422
17	0x3f00a406	0.5025028
18	0x3bee173c	0.0072659533
19	0x3d0eccf6	0.034863435
20	0x3e786cbe	0.24260232
21	0x3efcda97	0.4938552
22	0xbe4aadbe	-0.1979284
23	0xbe9d7caa	-0.30759174
24	0x3f06484d	0.5245407
25	0x3e15982b	0.14608829
26	0x3f0644e7	0.52448887
27	0xbcaa65ec	-0.020800553
28	0x3ca10bf8	0.019659027
29	0x3c853698	0.016261384
30	0x3d750d89	0.05982736
31	0x3ed89767	0.4230301
32	0xbe372765	-0.17886122
33	0xbe56f0b2	-0.20990255
34	0x3dee6098	0.116395175
35	0x3f0395ad	0.5140026
36	0x3e3e2d94	0.18572074
37	0x3ea422a8	0.3205769
38	0x3f5d96f4	0.8655846
39	0x3f01489c	0.5050142
40	0xbc3e67c8	-0.011621423
41	0xbda0a68c	-0.07844266
42	0xbe44ce60	-0.19219351
43	0x3e9b06be	0.3027858
44	0x3cf1f610	0.029536277
45	0x3e3c8ebe	0.18413827
46	0x3f4855c2	0.78255856
47	0x3f252e44	0.6452372
48	0xbe4dd5a5	-0.2010103
49	0x3e0592d1	0.13044287
50	0x3e7a7d74	0.24461919
51	0x3b6c6320	0.0036069825
52	0x3ea46719	0.32109907
53	0x3dcdc446	0.10047202
54	0xbd155e0e	-0.03646665
55	0x3d109170	0.03529495
56	0x3e2b9f3b	0.1675996
57	0x3e54a126	0.20764598
58	0x3c355b80	0.011069179
59	0x3f36a6cb	0.71348256
60	0x3ed59531	0.41715387
61	0x3ed08296	0.4072463
62	0x3eb8d462	0.36099535
63	0xbc312f5c	-0.010814514

functional_1/activation/Relu;functional_1/batch_normalization/FusedBatchNormV3;functional_1/conv2d/BiasAdd/ReadVariableOp/resource;functional_1/conv2d/BiasAdd;functional_1/conv2d_4/Conv2D;functional_1/conv2d/Conv2D f4 [64]
0	0xbe030349	-0.12794222
1	0xbe39e0f7	-0.18152224
2	0x3d23ccc4	0.0399902
3	0xbe8dd831	-0.27704003
4	0xbca78710	-0.020450145
5	0x3c9d0c36	0.019170862
6	0x3d8d1d2d	0.068903305
7	0xbe0406b7	-0.12893187
8	0xbdc751b5	-0.09732381
9	0x3b4ced3e	0.0031269337
10	0x3d9af131	0.07565535
11	0x3d086031	0.03329486
12	0xbc679b15	-0.0141360955
13	0xbe39901a	-0.18121377
14	0xbd822996	-0.06355588
15	0xbd1dd1cc	-0.038530156
16	0xbeb1a7fd	-0.34698477
17	0x3d329ab9	0.043604586
18	0xbdd58455	-0.10425631
19	0x3c181158	0.009281479
20	0x3c6df462	0.014523597
21	0x3e2b7d09	0.16746916
22	0x3ca3d611	0.019999536
23	0x3d30dc9e	0.043179147
24	0x3d992200	0.07477188
25	0xbe4a13f7	-0.19734178
26	0xbce2cdc7	-0.027686013
27	0xbd098e86	-0.033583187
28	0xbe6756e3	-0.22591738
29	0x3dbc4e57	0.0919463
30	0xbc8ecc6c	-0.01743146
31	0xbdbef046	-0.09323172
32	0x3ce425e4	0.027850099
33	0xbe79cf01	-0.24395372
34	0xbd2560af	-0.040375408
35	0x3e4db11f	0.20087098
36	0xba6a8aad	-0.0008947056
37	0xbda9d242	-0.082920566
38	0x3e884440	0.2661457
39	0xbdb7c499	-0.08973045
40	0xbdabb7ab	-0.08384641
41	0x3b45a1c5	0.0030156237
42	0x3e04e649	0.12978472
43	0x3da2ebb8	0.07955116
44	0xbb94216a	-0.004520585
45	0x3e14e18e	0.14539167
46	0xbe4a8bee	-0.19779941
47	0xbdffd917	-0.124925785
48	0xbd7ec90d	-0.062203456
49	0x3d963c84	0.07335761
50	0x3cb8756c	0.022516929
51	0xbdcd412a	-0.10022195
52	0x3daa0451	0.083016045
53	0xbe550846	-0.20803937
54	0xbea43c78	-0.32077384
55	0xbe72915a	-0.2368826
56	0x3c1685df	0.009187191
57	0x3d82a9a3	0.06380012
58	0xbd5ed8b7	-0.054405894
59	0xbde4c9f6	-0.111713335
60	0x3daa2f2c	0.083097786
61	0x3d9b47cf	0.07582056
62	0xbd4d0253	-0.050051045
63	0xbda752a6	-0.08170061

const_fold_opt__127 f4 [64, 1, 3, 3]
0	0xbfaaaeca	-1.3334591
1	0x3ec7099e	0.38874525
2	0x3e5f37bb	0.21798603
3	0x3e83b43c	0.25723445
4	0x3e8aaad7	0.27083465
5	0x3f4e4b6b	0.8058383
6	0x3f0c3eed	0.5478352
7	0x3eb19d06	0.34690112
8	0x3d97c084	0.07409766
9	0x3eaf9299	0.34291533
10	0x3e1e5070	0.15460372
11	0x3eca7043	0.39538774
12	0x3f406046	0.751469
13	0x3dcbeacb	0.099568926
14	0xbd6eda27	-0.058313515
15	0x3ee2e456	0.44314831
16	0x3ee1a2c6	0.440695
17	0x3ea6a73b	0.32549462
18	0xbe0d5b09	-0.13804258
19	0x3f83273a	1.0246346
20	0xbed45d6a	-0.4147752
21	0xbe894778	-0.2681234
22	0x3e815d02	0.25266272
23	0xbe1c3c73	-0.15257435
24	0xbbb7a2c2	-0.005604119
25	0x3dcdf6d0	0.100568414
26	0xbf2aa15a	-0.6665245
27	0xbe83ea32	-0.25764614
28	0x3dc34781	0.09535123
29	0x3f06b8d8	0.526258
30	0xbf0c9846	-0.5491985
31	0x3e933982	0.28754812
32	0x3e71d46d	0.2361619
33	0xbf20d8b5	-0.6283067
34	0xbd01df0f	-0.031706866
35	0x3f4e23a2	0.8052312
36	0xbf2c9184	-0.6740954
37	0x3e947b7c	0.2900046
38	0xbe7ddb48	-0.2479068
39	0xbe547446	-0.2074748
40	0x3e9af5c6	0.30265635
41	0xbf211587	-0.62923473
42	0xbe45772e	-0.19283745
43	0x3f145e35	0.5795625
44	0xbf26e2fb	-0.65190095
45	0xbf8be048	-1.092782
46	0xbeb74cc3	-0.35800752
47	0x3faba246	1.3408897
48	0xbdab3414	-0.083595425
49	0xbe5720ae	-0.2100856
50	0x3ed90313	0.42385158
51	0x3f05c5cb	0.52254933
52	0xbeae50e6	-0.34046096
53	0x3f059434	0.52179265
54	0xbec3a5ab	-0.38212332
55	0xbef31ec2	-0.47484404
56	0xbde2b574	-0.11069766
57	0xbe5a9913	-0.21347456
58	0x3ca40b03	0.020024782
59	0x3eab6ac7	0.33479902
60	0xbf04f2b1	-0.5193282
61	0xbe6cfb5c	-0.23142761
62	0xbec80fb7	-0.3907449
63	0xbe5d84a5	-0.21632631
64	0xbdda43c5	-0.10657457
65	0xbf6f6d09	-0.9352575
66	0xbe82688d	-0.2547039
67	0xbeaf9233	-0.3429123
68	0xbf2dcb7f	-0.67888635
69	0xbf290222	-0.6601888
70	0xbe36f292	-0.1786597
71	0x3cd0f9a6	0.025509667
72	0x3f09b267	0.53787845
73	0x3e51307a	0.20428649
74	0x3e95ad9c	0.29234016
75	0x3e8efbcb	0.27926478
76	0x3eebf439	0.46084765
77	0x3ea549d6	0.32282895
78	0x3dd19e2e	0.102352485
79	0x3e5da748	0.21645844
80	0x3cfa119a	0.030525971
81	0x3f666b3f	0.90007395
82	0x3f243fd4	0.64159894
83	0x3f8e45f4	1.1115098
84	0x3e96fbe0	0.2948904
85	0xbe4d2ea2	-0.2003732
86	0x3f25926f	0.64676565
87	0xbf56fce3	-0.83979625
88	0xbe634717	-0.22195087
89	0x3f1e18c1	0.6175652
90	0x3e285b30	0.16441035
91	0xbf0ae472	-0.5425483
92	0x3eceb6a6	0.40373725
93	0x3ed67966	0.41889495
94	0xbf3a0ce5	-0.72675925
95	0x3f59636f	0.8491735
96	0xbde43fcc	-0.11144981
97	0xbeccf924	-0.4003383
98	0x3f9dfea9	1.2343341
99	0xbd4cc9f9	-0.049997304
100	0xbf3bcb27	-0.7335686
101	0xbea9d5bf	-0.33170888
102	0x3eb52604	0.35380566
103	0xbee5fb4e	-0.44918293
104	0xbf72b7a4	-0.94811463
105	0x3e963972	0.29340702
106	0xbf3a07d2	-0.7266818
107	0x3c7ec6da	0.01555034
108	0x3f2e63c0	0.68120956
109	0x3e742bbd	0.2384481
110	0xbedb3a43	-0.42817888
111	0x3f14b6d9	0.58091503
112	0x3e854f9d	0.26037303
113	0xbeb8b645	-0.3607656
114	0x3f42f8db	0.76160973
115	0x3f164ed2	0.5871402
116	0x3ea1944a	0.31558448
117	0x3da4cc96	0.08046834
118	0x3f142251	0.5786486
119	0x3e2acd08	0.16679776
120	0xbe7440d7	-0.2385286
121	0x3e8ec86e	0.2788729
122	0x3eeab627	0.45842096
123	0xbf57e3a6	-0.8433174
124	0x3e7a8765	0.24465711
125	0x3dc93326	0.09824209
126	0xbf19b493	-0.6004116
127	0x3eec348e	0.46133846
128	0x3ee9cd41	0.4566441
129	0xbf20f80e	-0.628785
130	0xbd70dad4	-0.05880244
131	0xbf10b209	-0.5652166
132	0xbeb3c836	-0.35113686
133	0xbe7e6e65	-0.248468
134	0xbf72b479	-0.9480663
135	0xbd586e88	-0.052839786
136	0xbe328709	-0.17434324
137	0xbf7311dc	-0.94949126
138	0xbcb2efa0	-0.021842778
139	0xbf6b066c	-0.91806674
140	0xbf191621	-0.5979939
141	0xbf0ff315	-0.5623029
142	0xbe3eab42	-0.18620017
143	0x3f035388	0.51299334
144	0xbf37545d	-0.71613103
145	0xbe1b49ca	-0.15164867
146	0xbf959606	-1.1686409
147	0xbe4e7e9a	-0.20165482
148	0x3edf7087	0.4364054
149	0xbe543395	-0.20722802
150	0xbe9cb641	-0.306078
151	0x3f3094c3	0.6897699
152	0x3cc17e62	0.023619834
153	0xbf7fc14f	-0.9990434
154	0xbebf9189	-0.37415722
155	0x3eeeae43	0.46617326
156	0xbd6deb1f	-0.058085557
157	0xbf0b2c30	-0.543643
158	0x3e25b8b0	0.16183734
159	0xbf65770f	-0.89634794
160	0xbe9ce20c	-0.3064121
161	0xbf8d9bc5	-1.1063162
162	0xbe82f02f	-0.2557387
163	0xbecc3154	-0.39881384
164	0xbf5ae654	-0.855077
165	0xbf016e53	-0.50558966
166	0xbe848bd3	-0.25887927
167	0xbf71187e	-0.94178
168	0xbeca6bc6	-0.3953535
169	0xbedd3040	-0.43200874
170	0xbf3289ef	-0.6974172
171	0xbdfa3ddd	-0.12218831
172	0xbd8032ae	-0.062596664
173	0xbf1ea505	-0.6197055
174	0xbee7be0d	-0.45262185
175	0x3e03dc95	0.12877114
176	0xbedc2526	-0.42997092
177	0xbe96759f	-0.29386613
178	0x3f187793	0.59557456
179	0x3e1226a2	0.1427255
180	0x3d69bbba	0.057063796
181	0xbe278181	-0.16357996
182	0xbea5c5bd	-0.32377425
183	0x3d39c892	0.045357294
184	0xbf14a545	-0.5806468
185	0xbe851a58	-0.2599666
186	0xbedf47d9	-0.43609503
187	0xbf45d705	-0.7728122
188	0xbe019782	-0.12655452
189	0x3f74c5dd	0.95614415
190	0x3e49bdd8	0.19701326
191	0x3f17d816	0.59314096
192	0x3f07381c	0.5281999
193	0x3dabf1da	0.08395739
194	0xbe0e9225	-0.13922937
195	0xbe3633e8	-0.17793238
196	0xbe28785c	-0.16452163
197	0x3f30fd75	0.69136745
198	0x3e85d766	0.26140898
199	0x3f092b02	0.5358125
200	0x3e2e13d6	0.16999754
201	0x3f005e01	0.5014344
202	0xbd830459	-0.063973136
203	0x3eca1b99	0.3947418
204	0x3ead22a0	0.3381548
205	0xbd3c50e0	-0.045975566
206	0x3e87cfd8	0.2652576
207	0xbee02351	-0.43776944
208	0xbeca7e4c	-0.39549482
209	0x3f040d57	0.51582855
210	0xbc7f2ec6	-0.0155751165
211	0xbf03b113	-0.5144207
212	0x3ed34c32	0.4126907
213	0x3f980582	1.1876681
214	0xbef1e249	-0.47242954
215	0x3f46c2d1	0.77641016
216	0x3e824ad2	0.25447708
217	0x3dd64fae	0.104644164
218	0x3d2c39c3	0.042047273
219	0xbca97b97	-0.020688815
220	0x3f08c723	0.5342886
221	0x3ebbbe13	0.36668453
222	0x3db2be16	0.08727662
223	0x3f02fd95	0.51168185
224	0x3e35763a	0.17720881
225	0xbec96594	-0.3933531
226	0xbf002bab	-0.5006663
227	0xbeee2aa7	-0.46516916
228	0xbe9d3c76	-0.3071019
229	0xbea88202	-0.32911688
230	0xbdb701ea	-0.08935912
231	0xbf1b25b4	-0.60604405
232	0xbe40f033	-0.18841629
233	0xbe1759e3	-0.14780383
234	0x3f2be538	0.67146635
235	0xbe8a6392	-0.2702909
236	0xbf61a27d	-0.8813856
237	0xbe912c9f	-0.28354356
238	0xbf265b8d	-0.64983445
239	0xbf055ba7	-0.52092975
240	0xbec3a9be	-0.3821544
241	0x3ecceeb9	0.4002588
242	0x3e01de32	0.12682417
243	0x3e4831a1	0.19550182
244	0x3f689624	0.90854096
245	0xbf186ec7	-0.5954403
246	0x3f0c8f4b	0.5490615
247	0x3f098d78	0.5373149
248	0xbe1a00f7	-0.1503943
249	0x3e8e090e	0.27741283
250	0x3ee4526a	0.44594127
251	0x3f1ddb17	0.6166243
252	0xbe4174b5	-0.18892176
253	0x3fbcd7db	1.4753374
254	0x3ed6809b	0.41894993
255	0xbf06c2d3	-0.5264103

const_fold_opt__126 f4 [64, 1, 3, 3]
0	0x3f12f45b	0.57404107
1	0xbc05db0c	-0.008169901
2	0x3e7d948d	0.24763699
3	0x3f53fad4	0.8280461
4	0x3d7c7391	0.06163365
5	0xbd9c6663	-0.07636716
6	0x3f21a0eb	0.63136166
7	0x3e9c9811	0.30584767
8	0x3ea7d191	0.32777074
9	0xbef17462	-0.47159106
10	0xbec43daf	-0.3832831
11	0xbe899a13	-0.26875362
12	0x3e01bec7	0.12670432
13	0xbede6859	-0.43438986
14	0xbea71426	-0.3263256
15	0x3ed4beab	0.41551718
16	0xbf521590	-0.8206415
17	0xbec7521c	-0.38929832
18	0xbf5e809c	-0.8691499
19	0x3e141fe3	0.14465289
20	0x3fd173b7	1.6363438
21	0xbf6eef49	-0.9333387
22	0x3e72ab0d	0.23698063
23	0x3f15756e	0.5838231
24	0xbe9f38ec	-0.31098115
25	0xbf0dce76	-0.5539316
26	0xbd2efa9a	-0.04271946
27	0x3f15ac0c	0.5846565
28	0xbf22ac59	-0.6354423
29	0x3f276e44	0.65402627
30	0x3ef545ab	0.47904715
31	0x3e05b591	0.13057543
32	0x3d9b9068	0.07595903
33	0x3f967f63	1.1757625
34	0xbe0fdc71	-0.14048935
35	0x3f036736	0.5132936
36	0xbeafb0f4	-0.34314692
37	0xbf19e69a	-0.60117495
38	0x3f5417b4	0.8284867
39	0xbf3af661	-0.73032194
40	0x3e3e6b95	0.18595727
41	0x3f56a932	0.8385192
42	0xbd15fa0b	-0.036615413
43	0x3ed8fdb8	0.42381072
44	0x3c1353f3	0.008992183
45	0xbeefc724	-0.4683162
46	0x3e482e9a	0.19549027
47	0x3ecf4657	0.40483353
48	0xbf5b9e70	-0.8578863
49	0xbefbfab0	-0.49214697
50	0xbeba6b67	-0.36410066
51	0xbf125d89	-0.57173973
52	0xbe2e759a	-0.17037049
53	0xbfe871df	-1.8159751
54	0xbca3398c	-0.019924901
55	0x3e31ef9e	0.17376563
56	0xbed1bcb2	-0.40964276
57	0x3e44ab1e	0.19205901
58	0x3eae1c5f	0.3400602
59	0x3c1949d2	0.009355979
60	0x3f4032d3	0.7507755
61	0x3e042d0e	0.12907812
62	0xbe761384	-0.24030882
63	0x3f294f33	0.66136473
64	0xbebcd7c1	-0.36883357
65	0x3f2a9e13	0.6664745
66	0x3f1aefd4	0.605222
67	0x3ddf219c	0.10895082
68	0xbf21666e	-0.6304692
69	0x3e3e0ed9	0.18560351
70	0xbe4c638e	-0.19959852
71	0xbf36b191	-0.71364695
72	0x3dc71366	0.09720497
73	0x3f0837eb	0.53210324
74	0x3cdd48a6	0.02701218
75	0x3eb3d514	0.35123503
76	0x3e069842	0.13144019
77	0xbe516ff3	-0.20452861
78	0x3fc8d94a	1.5691311
79	0xbeb0ae3b	-0.34507927
80	0xbce258eb	-0.02763029
81	0xbf2e5e1a	-0.6811234
82	0xbef2204f	-0.47290275
83	0x3d971e84	0.07378867
84	0xbecc1180	-0.398571
85	0xbec5bd26	-0.3862087
86	0x3ec200e0	0.37891293
87	0xbf56f6de	-0.8397044
88	0xbe0b4fe1	-0.1360469
89	0x3f147517	0.57991165
90	0x3f146756	0.5797018
91	0x3e9e8b05	0.30965438
92	0x3f450521	0.7696095
93	0x3de73678	0.11289686
94	0x3edd8b1c	0.43270195
95	0x3f1f48e9	0.6222063
96	0xbefdf78d	-0.4960293
97	0x3ea34ac9	0.31892994
98	0x3f715b6f	0.9428014
99	0x3ed19781	0.409359
100	0x3f1ff9ab	0.6249034
101	0xbe9d1d70	-0.30686522
102	0x3edcc94f	0.43122336
103	0xbe360cb5	-0.17778285
104	0xbe5c7dfd	-0.21532436
105	0x3f4e27fd	0.8052977
106	0xbf72db10	-0.9486551
107	0x3e5cd81f	0.21566819
108	0xbe39a94f	-0.18130992
109	0xbe8c312f	-0.27381274
110	0x3f65a072	0.89697945
111	0xbf45c39a	-0.7725159
112	0xbd779eaa	-0.06045405
113	0x3ee144b3	0.43997726
114	0xbf24e872	-0.64417183
115	0x3e243dc8	0.16039193
116	0x3e5dd8e6	0.21664771
117	0x3f0b329b	0.5437409
118	0x3f5e299d	0.86782247
119	0xbdb26e92	-0.08712496
120	0x3f01fa6c	0.5077274
121	0x3f53300d	0.82495195
122	0x3df9bc98	0.121941745
123	0x3e75671a	0.23965111
124	0x3ee60154	0.44922888
125	0x3f0fe860	0.5621395
126	0x3f8fcf87	1.1235207
127	0xbec3c448	-0.38235688
128	0x3d0c66bc	0.034277663
129	0x3f34fa08	0.7069402
130	0xbf867553	-1.0504555
131	0x3f87b65c	1.0602527
132	0xbee60ada	-0.44930154
133	0x3e59c62a	0.21267
134	0x3f8eaf1b	1.1147188
135	0xbf519135	-0.81862193
136	0x3f8cdba3	1.1004528
137	0xbe947fca	-0.29003745
138	0xbedc85f3	-0.43070945
139	0x3ec2f64a	0.3807853
140	0xbeade50d	-0.33963814
141	0x3e9fc42f	0.31204364
142	0x3e23c9a3	0.15994887
143	0xbec6d889	-0.38837078
144	0x3e0e708c	0.1391012
145	0x3f4b286b	0.7935855
146	0x3e0b7951	0.13620497
147	0xbedd6a0e	-0.43244976
148	0x3f7c6136	0.9858583
149	0xbe8cb984	-0.27485287
150	0xbe460834	-0.19339067
151	0x3f248530	0.6426573
152	0xbebaa303	-0.36452493
153	0x3f41fda4	0.7577765
154	0x3e76aa42	0.24088386
155	0x3f806669	1.0031253
156	0x3f34aaf9	0.70573384
157	0x3eb39369	0.35073403
158	0x3ee93305	0.45546737
159	0x3eb036f5	0.3441693
160	0x3e929607	0.28630087
161	0x3f2307fc	0.6368406
162	0x3f56a4aa	0.8384501
163	0x3e86e378	0.2634542
164	0xbe910afe	-0.283287
165	0x3f465f34	0.7748902
166	0xbe9e02cd	-0.30861512
167	0xbe083ce0	-0.13304472
168	0x3ed7cbe0	0.42147732
169	0x3ebb6f71	0.3660846
170	0x3e11db95	0.1424392
171	0xbe8f3903	-0.27973184
172	0x3d7476d2	0.05968363
173	0xbdab2264	-0.08356169
174	0xbec6b61c	-0.38810813
175	0xbe518060	-0.20459127
176	0xbea98786	-0.3311121
177	0xbf2f6a5b	-0.6852166
178	0xbf14db31	-0.5814696
179	0xbeefeada	-0.46858865
180	0x3ef376c3	0.47551546
181	0x3f0b1c4d	0.5434006
182	0xbed0b8fe	-0.40766138
183	0x3ec83c1e	0.39108366
184	0x3f183e90	0.5947046
185	0xbe68daa4	-0.22739655
186	0xbd336d3f	-0.043805357
187	0xbd0fd6cf	-0.035116967
188	0xbef3ec2e	-0.47641128
189	0xbe51b7cb	-0.20480268
190	0xbf22baa9	-0.6356607
191	0xc01636f3	-2.3471038
192	0xbd9dc285	-0.07703117
193	0xbef8960f	-0.48551986
194	0xbebef65e	-0.37297338
195	0xbf5a7b76	-0.85344636
196	0xbe31bf93	-0.17358236
197	0xbea2c2a4	-0.31789124
198	0x3f109033	0.5647003
199	0xbe39106a	-0.18072668
200	0x3f4ada58	0.79239416
201	0x3f260d32	0.64863884
202	0x3e1288e6	0.14310035
203	0xbe269e16	-0.16271242
204	0x3f468789	0.7755056
205	0xbe61ebd0	-0.22062612
206	0xbf66f409	-0.9021612
207	0xbdd985ab	-0.10621198
208	0x3f03c6cb	0.5147521
209	0xbec1c38f	-0.37844512
210	0xbe1b4e8a	-0.15166679
211	0x3ea9f5b6	0.33195275
212	0xbf1f25bb	-0.6216695
213	0xbf58fede	-0.84763896
214	0xbd9dd216	-0.07706086
215	0xbea61190	-0.32435274
216	0x3cafd765	0.021465013
217	0x3f7cda8d	0.9877098
218	0x3f091fd1	0.53564173
219	0xbf392696	-0.723245
220	0x3f327278	0.69705915
221	0x3efd7e80	0.49510574
222	0xbf794ec4	-0.9738581
223	0x3f3df842	0.74206936
224	0x3f1bd585	0.6087268
225	0xbdd19a0a	-0.10234459
226	0xbd3c871b	-0.046027284
227	0xbea4112e	-0.32044357
228	0x3e6984d3	0.22804575
229	0xbd23d262	-0.03999556
230	0x3eb26d48	0.34849
231	0x3f4fdaa6	0.81193006
232	0x3e5cbe07	0.21556865
233	0x3f984f85	1.1899267
234	0x3f1779e6	0.5917038
235	0xbf640f9d	-0.89086324
236	0xbebdf470	-0.37100554
237	0x3f528267	0.8223023
238	0xbec4cb2d	-0.3843626
239	0xbf7ce044	-0.987797
240	0x3f561ca3	0.83637446
241	0x3f2d557e	0.67708576
242	0xbf441667	-0.76596683
243	0x3db4372c	0.08799586
244	0xbf05d4df	-0.5227794
245	0x3e1a8c78	0.15092647
246	0x3e96a1ee	0.29420418
247	0x3ed51938	0.41620803
248	0x3f239d84	0.63912225
249	0x3eaafba4	0.33395112
250	0x3ef350c1	0.47522548
251	0x3f3cae96	0.73703897
252	0x3f48329f	0.7820224
253	0xbeaced2f	-0.33774707
254	0xbead6871	-0.33868745
255	0x3f64f94f	0.89442915

const_fold_opt__124 f4 [64, 1, 3, 3]
0	0x3eb7924a	0.35853797
1	0xbc9e4ea5	-0.01932461
2	0x3e81b896	0.2533614
3	0xbf149a4b	-0.5804793
4	0xbe94dae7	-0.2907326
5	0x3e064017	0.13110386
6	0x3f016c24	0.50555634
7	0xbf8b0375	-1.086043
8	0xbef4019e	-0.47657484
9	0x3b65a678	0.003504185
10	0xbefd1934	-0.4943329
11	0xbf282bf0	-0.65692043
12	0xbe99cce1	-0.30039123
13	0xbee1e444	-0.44119465
14	0xbe519b5c	-0.20469421
15	0xbf07102e	-0.52759063
16	0xbdc8734c	-0.09787616
17	0x3f010485	0.5039752
18	0xbf15fc16	-0.5858778
19	0x3e95d45c	0.2926358
20	0xbf336c8e	-0.70087516
21	0xbee0ee51	-0.4393182
22	0x3e5105e1	0.20412399
23	0xbf86c07c	-1.0527492
24	0xbef95931	-0.4870086
25	0x3e9018a6	0.28143805
26	0xbf966824	-1.1750531
27	0xbf0b34ca	-0.54377425
28	0x3fd1117d	1.6333462
29	0x3cd6486b	0.026157578
30	0x3d2c52e6	0.042071246
31	0xbf838142	-1.0273821
32	0x3f32954c	0.6975906
33	0xbdd2fe0a	-0.1030236
34	0x3f2c86a4	0.67392945
35	0x3fcbc684	1.5919957
36	0x3ec9ff73	0.39452705
37	0xbecb3d7d	-0.3969535
38	0x3fb83f94	1.4394403
39	0xbf1f2e97	-0.62180465
40	0xbea43065	-0.32068172
41	0x3fb070e3	1.378445
42	0xbec24799	-0.3794525
43	0xbeb58083	-0.3544961
44	0xbdc9675b	-0.098341666
45	0xbf248674	-0.6426766
46	0x3ec719d3	0.3888689
47	0x3e11cfbd	0.14239402
48	0x3fe84d06	1.8148506
49	0xbe87cc93	-0.26523265
50	0xbef14220	-0.47120762
51	0xbe66b095	-0.22528298
52	0x3f03c3aa	0.51470435
53	0xbf121c8b	-0.57074803
54	0xbdb80cf3	-0.08986845
55	0xbf086bf8	-0.5328975
56	0x3f9e85be	1.2384565
57	0xbf3752d6	-0.7161077
58	0xbe80a91f	-0.2512903
59	0xbecfef99	-0.40612486
60	0xbf021359	-0.5081077
61	0xbd961b30	-0.07329404
62	0xbe31a2f3	-0.17347316
63	0xbebf625f	-0.3737974
64	0xbf0639a2	-0.5243169
65	0xbda0dd05	-0.07854656
66	0xbf337337	-0.7009768
67	0xbecbfef5	-0.39842954
68	0x3ea28f01	0.31749728
69	0xbf410cdf	-0.75410265
70	0x3e61acb5	0.22038539
71	0xbd8b357c	-0.06797311
72	0x3fa11f7e	1.2587736
73	0xbf060dc0	-0.5236473
74	0xbf5fd2ab	-0.8743083
75	0xbf34714c	-0.7048538
76	0xbee5010c	-0.4472736
77	0x3ed9191e	0.42401975
78	0xbecf2f0c	-0.4046558
79	0x3f78d0e7	0.9719376
80	0x3f07956d	0.5296238
81	0xbf2c1d93	-0.67232627
82	0x3f176ca0	0.59150124
83	0x3ed2a695	0.41142717
84	0xbf1f651b	-0.6226365
85	0x3ef71d63	0.48264608
86	0x39d102e6	0.00039865746
87	0xbc612775	-0.013742317
88	0x3ecfe433	0.4060379
89	0xbea3651c	-0.31913078
90	0xbe91953a	-0.28434163
91	0xbe88b094	-0.26697218
92	0x3f95d86c	1.1706672
93	0xbf1ca239	-0.6118503
94	0x3f99e303	1.2022403
95	0xbef6a339	-0.48171404
96	0xbd8344d1	-0.0640961
97	0xbec1380a	-0.37738067
98	0xbf817be8	-1.0115938
99	0xbf12182c	-0.57068133
100	0x3f1b9232	0.6076995
101	0xbf473f05	-0.77830535
102	0x3f2ac283	0.6670305
103	0xbf399039	-0.7248569
104	0xba619981	-0.0008605943
105	0x3e8c4831	0.27398828
106	0xbf42d910	-0.7611246
107	0x3fb57e7d	1.4179226
108	0xbf47140a	-0.7776495
109	0x3efefcc5	0.49802223
110	0xbed84030	-0.4223647
111	0xbfb20da9	-1.3910419
112	0x3f944132	1.1582396
113	0xbecf9600	-0.40544128
114	0x3f2a2c87	0.66474193
115	0xbf52b9f5	-0.82315
116	0x3efbe822	0.4920054
117	0x3f05c49e	0.5225314
118	0xbe844621	-0.25834754
119	0xbf5a07ab	-0.8516795
120	0x3f13c22d	0.57718164
121	0xbe2ca8a4	-0.16861206
122	0xbfbe1373	-1.4849685
123	0xbe190a21	-0.1494527
124	0xbe062906	-0.13101587
125	0xbe19a15f	-0.15002964
126	0xbe804473	-0.25052223
127	0x3e476c2b	0.19474857
128	0xbe9d7c79	-0.30759028
129	0x3e74563b	0.2386102
130	0xbf1c5ed6	-0.6108221
131	0xbe72aae0	-0.23697996
132	0x3f7564ec	0.9585712
133	0xbefa362a	-0.4886945
134	0x3eea6660	0.4578123
135	0x3d15eafe	0.03660106
136	0xbf2a1d40	-0.6645088
137	0x3d58f129	0.052964363
138	0xbeaafa66	-0.33394164
139	0x3f806c70	1.0033092
140	0xbf21079e	-0.6290225
141	0xbf523b33	-0.8212158
142	0x3f871434	1.055304
143	0x3e90cdbc	0.28281963
144	0xbed0230d	-0.40651742
145	0x3e335b71	0.17515351
146	0x3f2d4e9a	0.6769806
147	0x3f262f5b	0.6491601
148	0xbf0f2161	-0.5591031
149	0x3e985dad	0.2975897
150	0x3f2568d4	0.6461308
151	0x3f856aed	1.0423256
152	0xbf8e8b84	-1.1136327
153	0x3ea18294	0.31544936
154	0x3e81ea9b	0.25374302
155	0xbfd3d185	-1.6548315
156	0x3f3ad9cb	0.72988576
157	0xbeb62dd2	-0.35581833
158	0xbfea49c3	-1.830376
159	0xbef8e39f	-0.4861116
160	0xbeda611a	-0.42652208
161	0xbfbe5ee2	-1.4872706
162	0x3f33ae4d	0.70187837
163	0xbea9134b	-0.33022532
164	0x3fd0abfe	1.6302488
165	0x3ef6ed59	0.48227957
166	0xbf808bf5	-1.0042711
167	0x3fd38216	1.6524074
168	0x3cbce00d	0.023056054
169	0xbf60f959	-0.87880474
170	0x3ef18182	0.4716912
171	0xbf1e69cc	-0.61880183
172	0xbf02c5d0	-0.5108309
173	0x3ecea26c	0.40358293
174	0x3fde5b64	1.737164
175	0xbf8bc9c2	-1.0920947
176	0x3fdc2ad1	1.7200567
177	0xbea683e3	-0.32522497
178	0xbe690a0f	-0.22757743
179	0xbf098132	-0.5371276
180	0x3f81f47b	1.0152735
181	0x3eac6fed	0.33679143
182	0xbdf02342	-0.11725475
183	0x3e488a26	0.1958395
184	0xbeac9ef8	-0.33715034
185	0xbfac7610	-1.347353
186	0x3eea57a2	0.45769984
187	0xbecb1849	-0.39666966
188	0xbffd1e94	-1.9774957
189	0xbda345d3	-0.07972302
190	0x3d71375b	0.05889068
191	0xbe1a8903	-0.15091328
192	0xbebd0557	-0.36918136
193	0x3e7de3d2	0.24793938
194	0xbf221426	-0.63311994
195	0xbec50934	-0.38483584
196	0x3ea93c4b	0.33053812
197	0xbf68bc1b	-0.90912026
198	0x3f672502	0.90290844
199	0xbe826234	-0.25465548
200	0x3ec43abe	0.38326067
201	0xbe943085	-0.28943267
202	0xbf56d241	-0.8391457
203	0xbf42c2b9	-0.76078373
204	0xbd66dca4	-0.056362763
205	0x40222abf	2.533859
206	0xbf22a07c	-0.6352613
207	0xbef36741	-0.47539714
208	0xbe961477	-0.29312488
209	0x3e0701e3	0.13184313
210	0x3f909b63	1.129742
211	0xbeb820c5	-0.359625
212	0xbe9c6e61	-0.30552962
213	0xbe6d829b	-0.23194353
214	0x3eedf9ce	0.46479648
215	0xbd781133	-0.060563277
216	0xbf6a7025	-0.9157737
217	0x3ebdcc8a	0.37070113
218	0xbeb597d9	-0.35467413
219	0xbed9ef02	-0.4256516
220	0x3edfec11	0.43734792
221	0xbff1dbd6	-1.8895214
222	0x3be1d441	0.0068917577
223	0xbf235727	-0.6380486
224	0xbf899036	-1.0747135
225	0x3ee5c7d3	0.44879016
226	0xbe0737fc	-0.1320495
227	0xbe84f635	-0.2596909
228	0x3f21524a	0.6301619
229	0xbebfc78d	-0.37456933
230	0x3b659fa1	0.0035037773
231	0xbe6ffc9b	-0.23436205
232	0xbe104d27	-0.14091931
233	0xbf2e6afb	-0.6813199
234	0x3ec6dbf1	0.38839677
235	0x3edddcb2	0.4333244
236	0xbf321d44	-0.69575906
237	0x3e2f699a	0.17130128
238	0xbf49525c	-0.78641295
239	0xbf3f9b80	-0.7484665
240	0xbdcfc63d	-0.10145233
241	0xbf95b929	-1.1697131
242	0xbf0528b1	-0.52015215
243	0xbf6a2936	-0.9146913
244	0x3d49bde6	0.049253367
245	0x3fad5541	1.3541642
246	0x3f873002	1.0561526
247	0x3f2478db	0.6424691
248	0x3f71e834	0.9449494
249	0x3c80dd18	0.015730426
250	0xbf37c70c	-0.71788096
251	0xbfe49bad	-1.7860008
252	0xbee7376f	-0.4515948
253	0x3f902b5f	1.1263236
254	0x3f33509e	0.7004489
255	0xbf605069	-0.87622696

const_fold_opt__121 f4 [64, 1, 10, 4]
0	0xbc049030	-0.008091018
1	0x3cc6d848	0.024273053
2	0xbc67fc54	-0.014159281
3	0x3cc6d848	0.024273053
4	0x3ddfb351	0.10922874
5	0x3ce7fc54	0.028318562
6	0xbd806bae	-0.06270538
7	0xbd0cd933	-0.034386825
8	0x3e2dfd3f	0.16991137
9	0x3da18fba	0.07888742
10	0xbd88b4b2	-0.0667509
11	0x3d704557	0.058659878
12	0x3d1d6b39	0.038432334
13	0xbd3e8f45	-0.04652335
14	0x3d1d6b39	0.038432334
15	0x3e152236	0.14563832
16	0xbd806bae	-0.06270538
17	0xbde7fc54	-0.11327425
18	0x3db64642	0.08900119
19	0x3d364642	0.044500597
20	0xbdb221c0	-0.086978436
21	0xbc952236	-0.01820479
22	0x3c67fc54	0.014159281
23	0xbdfcb2dc	-0.12338802
24	0xbdcf214b	-0.10113772
25	0x3cd76a4e	0.026295807
26	0xbca5b43c	-0.020227544
27	0xbdcf214b	-0.10113772
28	0xbdbe8f45	-0.0930467
29	0xbb849030	-0.004045509
30	0x3cb64642	0.022250298
31	0x3cb64642	0.022250298
32	0x3c049030	0.008091018
33	0x3c849030	0.016182035
34	0x3cb64642	0.022250298
35	0xbd2dfd3f	-0.042477842
36	0x3d5fb351	0.05461437
37	0x3cc6d848	0.024273053
38	0x3cc6d848	0.024273053
39	0xbd806bae	-0.06270538
40	0x3c46d848	0.012136526
41	0x3d364642	0.044500597
42	0x3d576a4e	0.052591614
43	0xbd952236	-0.07281916
44	0xbc952236	-0.01820479
45	0x3c25b43c	0.010113772
46	0x3db64642	0.08900119
47	0xbd3e8f45	-0.04652335
48	0xbd152236	-0.03640958
49	0xbc049030	-0.008091018
50	0x3dbe8f45	0.0930467
51	0xbcb64642	-0.022250298
52	0xbd1d6b39	-0.038432334
53	0xbdadfd3f	-0.084955685
54	0x3d4f214b	0.05056886
55	0x3d0cd933	0.034386825
56	0xbd4f214b	-0.05056886
57	0xbc849030	-0.016182035
58	0xbc25b43c	-0.010113772
59	0x3d25b43c	0.040455088
60	0xbb049030	-0.0020227544
61	0xbd152236	-0.03640958
62	0xbd152236	-0.03640958
63	0x3d0cd933	0.034386825
64	0x3c46d848	0.012136526
65	0xbc049030	-0.008091018
66	0xbd4f214b	-0.05056886
67	0x3ce7fc54	0.028318562
68	0x3d1d6b39	0.038432334
69	0x3c67fc54	0.014159281
70	0xbd849030	-0.06472814
71	0xbb849030	-0.004045509
72	0x3d849030	0.06472814
73	0x3cc6d848	0.024273053
74	0xbd9946b8	-0.07484192
75	0x00000000	0.0
76	0x3c46d848	0.012136526
77	0x3c849030	0.016182035
78	0xbd46d848	-0.048546106
79	0x3d46d848	0.048546106
80	0x3c049030	0.008091018
81	0xbd788e5a	-0.060682632
82	0x3c67fc54	0.014159281
83	0x3d0cd933	0.034386825
84	0xbd049030	-0.03236407
85	0xbc952236	-0.01820479
86	0xbc46d848	-0.012136526
87	0x3c25b43c	0.010113772
88	0xbca5b43c	-0.020227544
89	0xbc849030	-0.016182035
90	0xbd049030	-0.03236407
91	0x3d1d6b39	0.038432334
92	0xbd2dfd3f	-0.042477842
93	0x3b849030	0.004045509
94	0xbbc6d848	-0.006068263
95	0x3c952236	0.01820479
96	0xbbc6d848	-0.006068263
97	0x3c46d848	0.012136526
98	0xbc46d848	-0.012136526
99	0xbd049030	-0.03236407
100	0xbb849030	-0.004045509
101	0x3d364642	0.044500597
102	0x3cc6d848	0.024273053
103	0xbd364642	-0.044500597
104	0xbb049030	-0.0020227544
105	0x3d0cd933	0.034386825
106	0x3d049030	0.03236407
107	0xbd4f214b	-0.05056886
108	0x3cd76a4e	0.026295807
109	0x3cc6d848	0.024273053
110	0x3ce7fc54	0.028318562
111	0x3c049030	0.008091018
112	0xbc049030	-0.008091018
113	0xbb049030	-0.0020227544
114	0x3cd76a4e	0.026295807
115	0xbc67fc54	-0.014159281
116	0x3cb64642	0.022250298
117	0xbc25b43c	-0.010113772
118	0xbbc6d848	-0.006068263
119	0x3bc6d848	0.006068263
120	0x3c049030	0.008091018
121	0x3bc6d848	0.006068263
122	0x3c25b43c	0.010113772
123	0x3bc6d848	0.006068263
124	0x3d049030	0.03236407
125	0x3c849030	0.016182035
126	0x3d0cd933	0.034386825
127	0x3d049030	0.03236407
128	0x3cb64642	0.022250298
129	0x3d152236	0.03640958
130	0xbc46d848	-0.012136526
131	0xbbc6d848	-0.006068263
132	0x3b049030	0.0020227544
133	0x3ca5b43c	0.020227544
134	0xbd1d6b39	-0.038432334
135	0xbd152236	-0.03640958
136	0xbcf88e5a	-0.030341316
137	0x3bc6d848	0.006068263
138	0xbb849030	-0.004045509
139	0xbd704557	-0.058659878
140	0xbd88b4b2	-0.0667509
141	0xbd2dfd3f	-0.042477842
142	0xbc46d848	-0.012136526
143	0xbcf88e5a	-0.030341316
144	0xbc67fc54	-0.014159281
145	0xbd152236	-0.03640958
146	0xbc46d848	-0.012136526
147	0xbb849030	-0.004045509
148	0x3c25b43c	0.010113772
149	0xbca5b43c	-0.020227544
150	0xbc849030	-0.016182035
151	0x3c67fc54	0.014159281
152	0x3d049030	0.03236407
153	0xbc25b43c	-0.010113772
154	0x3bc6d848	0.006068263
155	0x3d88b4b2	0.0667509
156	0x3cd76a4e	0.026295807
157	0x3b849030	0.004045509
158	0x3c952236	0.01820479
159	0x3cd76a4e	0.026295807
160	0xbc849030	-0.016182035
161	0xbc849030	-0.016182035
162	0xbcf88e5a	-0.030341316
163	0x3b049030	0.0020227544
164	0xbbc6d848	-0.006068263
165	0x3bc6d848	0.006068263
166	0xbcd76a4e	-0.026295807
167	0x3cd76a4e	0.026295807
168	0xbb049030	-0.0020227544
169	0x3bc6d848	0.006068263
170	0xbd049030	-0.03236407
171	0x3d0cd933	0.034386825
172	0x3b049030	0.0020227544
173	0xbcd76a4e	-0.026295807
174	0xbc049030	-0.008091018
175	0x3bc6d848	0.006068263
176	0xbc67fc54	-0.014159281
177	0xbd46d848	-0.048546106
178	0x3c049030	0.008091018
179	0xbbc6d848	-0.006068263
180	0xbb049030	-0.0020227544
181	0xbd67fc54	-0.056637123
182	0xbc46d848	-0.012136526
183	0x3ca5b43c	0.020227544
184	0x3cd76a4e	0.026295807
185	0x3cd76a4e	0.026295807
186	0xbc46d848	-0.012136526
187	0x3ca5b43c	0.020227544
188	0x3c849030	0.016182035
189	0x3ce7fc54	0.028318562
190	0x3cc6d848	0.024273053
191	0x3c67fc54	0.014159281
192	0xbbc6d848	-0.006068263
193	0x3d2dfd3f	0.042477842
194	0x3d1d6b39	0.038432334
195	0xbcc6d848	-0.024273053
196	0xbb049030	-0.0020227544
197	0xbbc6d848	-0.006068263
198	0x3cf88e5a	0.030341316
199	0xbcc6d848	-0.024273053
200	0x3cd76a4e	0.026295807
201	0xbc67fc54	-0.014159281
202	0xbc25b43c	-0.010113772
203	0xbc67fc54	-0.014159281
204	0x3d2dfd3f	0.042477842
205	0x00000000	0.0
206	0xbd849030	-0.06472814
207	0x3b049030	0.0020227544
208	0xbc25b43c	-0.010113772
209	0x3c67fc54	0.014159281
210	0xbd67fc54	-0.056637123
211	0x3d25b43c	0.040455088
212	0xbb049030	-0.0020227544
213	0xbb049030	-0.0020227544
214	0xbda9d8be	-0.082932934
215	0x3c46d848	0.012136526
216	0xbd1d6b39	-0.038432334
217	0x3c67fc54	0.014159281
218	0xbd4f214b	-0.05056886
219	0x3d9d6b39	0.07686467
220	0xbcc6d848	-0.024273053
221	0xbc46d848	-0.012136526
222	0xbc049030	-0.008091018
223	0x3da9d8be	0.082932934
224	0xbd1d6b39	-0.038432334
225	0xbc25b43c	-0.010113772
226	0x3cb64642	0.022250298
227	0x3dcafcca	0.09911497
228	0xbd049030	-0.03236407
229	0xbd25b43c	-0.040455088
230	0xbb049030	-0.0020227544
231	0x3db64642	0.08900119
232	0xbd1d6b39	-0.038432334
233	0x3d25b43c	0.040455088
234	0x3cb64642	0.022250298
235	0x3d364642	0.044500597
236	0xbc049030	-0.008091018
237	0x3c67fc54	0.014159281
238	0x3d1d6b39	0.038432334
239	0x3c67fc54	0.014159281
240	0x3d5fb351	0.05461437
241	0xbd049030	-0.03236407
242	0xbb049030	-0.0020227544
243	0xbc25b43c	-0.010113772
244	0x3d46d848	0.048546106
245	0xbb049030	-0.0020227544
246	0x3d049030	0.03236407
247	0x3c849030	0.016182035
248	0x3da18fba	0.07888742
249	0x3d3e8f45	0.04652335
250	0xbc849030	-0.016182035
251	0x3d5fb351	0.05461437
252	0x3d4f214b	0.05056886
253	0xbc67fc54	-0.014159281
254	0xbd806bae	-0.06270538
255	0x3d2dfd3f	0.042477842

const_fold_opt__118 f4 [64, 64, 1, 1]
0	0xbe346e8c	-0.17620295
1	0x3d105870	0.03524059
2	0xbc4075eb	-0.011746864
3	0xbe2e6add	-0.17032953
4	0x3df09366	0.11746864
5	0xbe5e8858	-0.21731699
6	0xbdc075eb	-0.09397491
7	0x00000000	0.0
8	0xbe3a723c	-0.1820764
9	0xbc4075eb	-0.011746864
10	0xbdd884a8	-0.10572177
11	0x3de48c07	0.111595206
12	0xbd9c5fcf	-0.076354615
13	0x3de48c07	0.111595206
14	0x3e045112	0.12921551
15	0xbcc075eb	-0.023493728
16	0xbe709366	-0.23493728
17	0x00000000	0.0
18	0xbd709366	-0.05873432
19	0x3d28672e	0.041114025
20	0x3e7c9ac4	0.24668413
21	0x3d9c5fcf	0.076354615
22	0xbda8672e	-0.08222805
23	0xbd28672e	-0.041114025
24	0x3e0a54c1	0.13508894
25	0x3c905870	0.017620295
26	0x3dfc9ac4	0.12334207
27	0xbdfc9ac4	-0.12334207
28	0x3e3a723c	0.1820764
29	0x3db46e8c	0.08810148
30	0xbebd7413	-0.3700262
31	0xbeba723c	-0.3641528
32	0xbdfc9ac4	-0.12334207
33	0x3e28672e	0.1644561
34	0xbde48c07	-0.111595206
35	0x3e0a54c1	0.13508894
36	0xbc4075eb	-0.011746864
37	0x3e346e8c	0.17620295
38	0x3e165c20	0.1468358
39	0xbdb46e8c	-0.08810148
40	0x3d905870	0.07048118
41	0x3bc075eb	0.005873432
42	0xbe46799a	-0.19382325
43	0x3e5e8858	0.21731699
44	0xbe22637e	-0.15858266
45	0x3dfc9ac4	0.12334207
46	0xbdd884a8	-0.10572177
47	0xbdd884a8	-0.10572177
48	0xbe46799a	-0.19382325
49	0x3db46e8c	0.08810148
50	0x3db46e8c	0.08810148
51	0x3da8672e	0.08222805
52	0xbd28672e	-0.041114025
53	0xbda8672e	-0.08222805
54	0xbbc075eb	-0.005873432
55	0xbd905870	-0.07048118
56	0xbe46799a	-0.19382325
57	0xbcc075eb	-0.023493728
58	0xbd905870	-0.07048118
59	0x3db46e8c	0.08810148
60	0xbe814f3a	-0.25255758
61	0xbe709366	-0.23493728
62	0xbcc075eb	-0.023493728
63	0xbcc075eb	-0.023493728
64	0x3bc075eb	0.005873432
65	0x3d709366	0.05873432
66	0xbe46799a	-0.19382325
67	0xbcc075eb	-0.023493728
68	0x3e22637e	0.15858266
69	0xbe346e8c	-0.17620295
70	0xbe965c20	-0.2936716
71	0xbe4075eb	-0.18794982
72	0xbe22637e	-0.15858266
73	0x3e995df7	0.29954502
74	0x3e769715	0.2408107
75	0x3e3a723c	0.1820764
76	0xbd905870	-0.07048118
77	0xbd709366	-0.05873432
78	0xbe0a54c1	-0.13508894
79	0xbbc075eb	-0.005873432
80	0x3ed280f9	0.41114023
81	0xbdfc9ac4	-0.12334207
82	0x3eb77064	0.35827935
83	0x3e935a48	0.28779817
84	0x3dd884a8	0.10572177
85	0x00000000	0.0
86	0xbeab6905	-0.3347856
87	0x3db46e8c	0.08810148
88	0x3c905870	0.017620295
89	0x3e9f61a7	0.3112919
90	0x3df09366	0.11746864
91	0xbe105870	-0.14096236
92	0x3e5e8858	0.21731699
93	0xbdc075eb	-0.09397491
94	0x3e22637e	0.15858266
95	0xbd4075eb	-0.046987455
96	0x3ed280f9	0.41114023
97	0xbed280f9	-0.41114023
98	0x3e5884a8	0.21144354
99	0xbe5e8858	-0.21731699
100	0xbdb46e8c	-0.08810148
101	0xbd5884a8	-0.052860886
102	0xbd105870	-0.03524059
103	0x3e105870	0.14096236
104	0x3e46799a	0.19382325
105	0x3d9c5fcf	0.076354615
106	0x3d28672e	0.041114025
107	0x3c905870	0.017620295
108	0x3e648c07	0.22319041
109	0x3e1c5fcf	0.15270923
110	0x3e46799a	0.19382325
111	0xbc4075eb	-0.011746864
112	0xbe5280f9	-0.20557012
113	0xbda8672e	-0.08222805
114	0x3c4075eb	0.011746864
115	0x3c905870	0.017620295
116	0x3e5e8858	0.21731699
117	0xbdf09366	-0.11746864
118	0xbc4075eb	-0.011746864
119	0x3e4075eb	0.18794982
120	0x3cf09366	0.02936716
121	0x3e905870	0.28192472
122	0x3db46e8c	0.08810148
123	0x3ea2637e	0.31716532
124	0xbd845112	-0.064607754
125	0x3c905870	0.017620295
126	0x3e4c7d4a	0.19969669
127	0x3e165c20	0.1468358
128	0xbe346e8c	-0.17620295
129	0x3da8672e	0.08222805
130	0x3e935a48	0.28779817
131	0xbe7c9ac4	-0.24668413
132	0xbdfc9ac4	-0.12334207
133	0x3e165c20	0.1468358
134	0x3cc075eb	0.023493728
135	0xbe814f3a	-0.25255758
136	0xbec377c3	-0.38177308
137	0x3e5280f9	0.20557012
138	0x3e9f61a7	0.3112919
139	0xbdd884a8	-0.10572177
140	0xbd845112	-0.064607754
141	0xbe22637e	-0.15858266
142	0x3dfc9ac4	0.12334207
143	0x3d709366	0.05873432
144	0x3e905870	0.28192472
145	0x3d9c5fcf	0.076354615
146	0xbc905870	-0.017620295
147	0x3d845112	0.064607754
148	0xbc905870	-0.017620295
149	0x3e709366	0.23493728
150	0xbd845112	-0.064607754
151	0xbc905870	-0.017620295
152	0xbcc075eb	-0.023493728
153	0xbd9c5fcf	-0.076354615
154	0x3d709366	0.05873432
155	0xbe46799a	-0.19382325
156	0xbbc075eb	-0.005873432
157	0xbe769715	-0.2408107
158	0x3dfc9ac4	0.12334207
159	0x3cf09366	0.02936716
160	0xbe28672e	-0.1644561
161	0x3e045112	0.12921551
162	0xbcc075eb	-0.023493728
163	0xbdc075eb	-0.09397491
164	0x3ec075eb	0.37589964
165	0xbe709366	-0.23493728
166	0x3e1c5fcf	0.15270923
167	0xbe8d5699	-0.2760513
168	0xbc905870	-0.017620295
169	0xbdb46e8c	-0.08810148
170	0x3e709366	0.23493728
171	0x3d845112	0.064607754
172	0x3c4075eb	0.011746864
173	0x3bc075eb	0.005873432
174	0xbd4075eb	-0.046987455
175	0xbcc075eb	-0.023493728
176	0x3dc075eb	0.09397491
177	0x3ec075eb	0.37589964
178	0x3e709366	0.23493728
179	0x3e7c9ac4	0.24668413
180	0xbd5884a8	-0.052860886
181	0x00000000	0.0
182	0x3d4075eb	0.046987455
183	0x3e165c20	0.1468358
184	0xbdf09366	-0.11746864
185	0x3e045112	0.12921551
186	0xbe0a54c1	-0.13508894
187	0x3d9c5fcf	0.076354615
188	0xbd105870	-0.03524059
189	0xbc905870	-0.017620295
190	0x3e346e8c	0.17620295
191	0xbdc075eb	-0.09397491
192	0xbe6a8fb6	-0.22906384
193	0xbd105870	-0.03524059
194	0x3de48c07	0.111595206
195	0x3db46e8c	0.08810148
196	0xbc4075eb	-0.011746864
197	0x3e769715	0.2408107
198	0xbd9c5fcf	-0.076354615
199	0x3e46799a	0.19382325
200	0x3d105870	0.03524059
201	0x3e6a8fb6	0.22906384
202	0xbe9f61a7	-0.3112919
203	0xbec377c3	-0.38177308
204	0x3e709366	0.23493728
205	0xbd9c5fcf	-0.076354615
206	0xbdc075eb	-0.09397491
207	0xbe28672e	-0.1644561
208	0x3e22637e	0.15858266
209	0x3e5280f9	0.20557012
210	0xbda8672e	-0.08222805
211	0x3d9c5fcf	0.076354615
212	0x3ea56556	0.32303876
213	0xbd709366	-0.05873432
214	0xbcc075eb	-0.023493728
215	0xbc905870	-0.017620295
216	0x3bc075eb	0.005873432
217	0x00000000	0.0
218	0x3e28672e	0.1644561
219	0x3e165c20	0.1468358
220	0x3e5884a8	0.21144354
221	0x3cf09366	0.02936716
222	0x3e5280f9	0.20557012
223	0xbe4075eb	-0.18794982
224	0xbd28672e	-0.041114025
225	0xbe0a54c1	-0.13508894
226	0xbe709366	-0.23493728
227	0xbe709366	-0.23493728
228	0x3ecf7f21	0.4052668
229	0x3bc075eb	0.005873432
230	0x3cc075eb	0.023493728
231	0x3c905870	0.017620295
232	0x3e1c5fcf	0.15270923
233	0x3e46799a	0.19382325
234	0xbd5884a8	-0.052860886
235	0x3e814f3a	0.25255758
236	0x3e935a48	0.28779817
237	0xbcf09366	-0.02936716
238	0x3ea2637e	0.31716532
239	0xbde48c07	-0.111595206
240	0xbe935a48	-0.28779817
241	0x3d905870	0.07048118
242	0x3d4075eb	0.046987455
243	0xbda8672e	-0.08222805
244	0xbdd884a8	-0.10572177
245	0x3e4075eb	0.18794982
246	0xbdcc7d4a	-0.099848345
247	0xbd5884a8	-0.052860886
248	0x3e0a54c1	0.13508894
249	0x3d4075eb	0.046987455
250	0x3e22637e	0.15858266
251	0x3e5280f9	0.20557012
252	0xbdcc7d4a	-0.099848345
253	0x3e7c9ac4	0.24668413
254	0x3e5280f9	0.20557012
255	0x3d905870	0.07048118
